program(1.0)
[buildInfo = dict<tensor<string, []>, tensor<string, []>>({{"coremlc-component-MIL", "5.30.0"}, {"coremlc-version", "1839.0.0"}})]
{
    func main<ios16>(tensor<fp16, [2, 768, 1, 77]> encoder_hidden_states, tensor<fp16, [2, 4, 64, 64]> sample, tensor<fp16, [2]> timestep) {
            tensor<int32, []> var_25 = const()[name = tensor<string, []>("op_25"), val = tensor<int32, []>(-1)];
            tensor<int32, [1]> var_42_axes_0 = const()[name = tensor<string, []>("op_42_axes_0"), val = tensor<int32, [1]>([1])];
            tensor<fp16, [2, 1]> var_42_cast = expand_dims(axes = var_42_axes_0, x = timestep)[name = tensor<string, []>("op_42_cast")];
            tensor<fp16, [1, 160]> var_44_to_fp16 = const()[name = tensor<string, []>("op_44_to_fp16"), val = tensor<fp16, [1, 160]>(BLOBFILE(path = tensor<string, []>("@model_path/weights/weight.bin"), offset = tensor<uint64, []>(64)))];
            tensor<fp16, [2, 160]> emb_3_cast = mul(x = var_42_cast, y = var_44_to_fp16)[name = tensor<string, []>("emb_3_cast")];
            tensor<fp16, [2, 160]> var_49_cast = sin(x = emb_3_cast)[name = tensor<string, []>("op_49_cast")];
            tensor<fp16, [2, 160]> var_50_cast = cos(x = emb_3_cast)[name = tensor<string, []>("op_50_cast")];
            tensor<bool, []> emb_interleave_0 = const()[name = tensor<string, []>("emb_interleave_0"), val = tensor<bool, []>(false)];
            tensor<fp16, [2, 320]> emb_cast = concat(axis = var_25, interleave = emb_interleave_0, values = (var_49_cast, var_50_cast))[name = tensor<string, []>("emb_cast")];
            tensor<int32, [2]> var_54_begin_0 = const()[name = tensor<string, []>("op_54_begin_0"), val = tensor<int32, [2]>([0, 160])];
            tensor<int32, [2]> var_54_end_0 = const()[name = tensor<string, []>("op_54_end_0"), val = tensor<int32, [2]>([2, 320])];
            tensor<bool, [2]> var_54_end_mask_0 = const()[name = tensor<string, []>("op_54_end_mask_0"), val = tensor<bool, [2]>([true, true])];
            tensor<fp16, [2, 160]> var_54_cast = slice_by_index(begin = var_54_begin_0, end = var_54_end_0, end_mask = var_54_end_mask_0, x = emb_cast)[name = tensor<string, []>("op_54_cast")];
            tensor<int32, [2]> var_56_begin_0 = const()[name = tensor<string, []>("op_56_begin_0"), val = tensor<int32, [2]>([0, 0])];
            tensor<int32, [2]> var_56_end_0 = const()[name = tensor<string, []>("op_56_end_0"), val = tensor<int32, [2]>([2, 160])];
            tensor<bool, [2]> var_56_end_mask_0 = const()[name = tensor<string, []>("op_56_end_mask_0"), val = tensor<bool, [2]>([true, false])];
            tensor<fp16, [2, 160]> var_56_cast = slice_by_index(begin = var_56_begin_0, end = var_56_end_0, end_mask = var_56_end_mask_0, x = emb_cast)[name = tensor<string, []>("op_56_cast")];
            tensor<bool, []> sample_interleave_0 = const()[name = tensor<string, []>("sample_interleave_0"), val = tensor<bool, []>(false)];
            tensor<fp16, [2, 320]> sample_cast = concat(axis = var_25, interleave = sample_interleave_0, values = (var_54_cast, var_56_cast))[name = tensor<string, []>("sample_cast")];
            tensor<int32, []> var_59 = const()[name = tensor<string, []>("op_59"), val = tensor<int32, []>(1)];
            tensor<int32, [1]> var_66_axes_0 = const()[name = tensor<string, []>("op_66_axes_0"), val = tensor<int32, [1]>([-1])];
            tensor<fp16, [2, 320, 1]> var_66_cast = expand_dims(axes = var_66_axes_0, x = sample_cast)[name = tensor<string, []>("op_66_cast")];
            tensor<int32, [1]> input_1_axes_0 = const()[name = tensor<string, []>("input_1_axes_0"), val = tensor<int32, [1]>([-1])];
            tensor<fp16, [2, 320, 1, 1]> input_1_cast = expand_dims(axes = input_1_axes_0, x = var_66_cast)[name = tensor<string, []>("input_1_cast")];
            tensor<int32, [2]> var_70 = const()[name = tensor<string, []>("op_70"), val = tensor<int32, [2]>([1, 1])];
            tensor<int32, [2]> var_72 = const()[name = tensor<string, []>("op_72"), val = tensor<int32, [2]>([1, 1])];
            tensor<string, []> input_3_pad_type_0 = const()[name = tensor<string, []>("input_3_pad_type_0"), val = tensor<string, []>("custom")];
            tensor<int32, [4]> input_3_pad_0 = const()[name = tensor<string, []>("input_3_pad_0"), val = tensor<int32, [4]>([0, 0, 0, 0])];
            tensor<fp16, [1280, 320, 1, 1]> time_embedding_linear_1_weight_to_fp16_palettized = constexpr_lut_to_dense()[indices = tensor<uint8, [307200]>(BLOBFILE(path = tensor<string, []>("@model_path/weights/weight.bin"), offset = tensor<uint64, []>(448))), lut = tensor<fp16, [64]>(BLOBFILE(path = tensor<string, []>("@model_path/weights/weight.bin"), offset = tensor<uint64, []>(307712))), name = tensor<string, []>("time_embedding_linear_1_weight_to_fp16_palettized"), shape = tensor<uint32, [4]>([1280, 320, 1, 1])];
            tensor<fp16, [1280]> time_embedding_linear_1_bias_to_fp16 = const()[name = tensor<string, []>("time_embedding_linear_1_bias_to_fp16"), val = tensor<fp16, [1280]>(BLOBFILE(path = tensor<string, []>("@model_path/weights/weight.bin"), offset = tensor<uint64, []>(307904)))];
            tensor<fp16, [2, 1280, 1, 1]> input_3_cast = conv(bias = time_embedding_linear_1_bias_to_fp16, dilations = var_72, groups = var_59, pad = input_3_pad_0, pad_type = input_3_pad_type_0, strides = var_70, weight = time_embedding_linear_1_weight_to_fp16_palettized, x = input_1_cast)[name = tensor<string, []>("input_3_cast")];
            tensor<fp16, [2, 1280, 1, 1]> input_5_cast = silu(x = input_3_cast)[name = tensor<string, []>("input_5_cast")];
            tensor<int32, [2]> var_78 = const()[name = tensor<string, []>("op_78"), val = tensor<int32, [2]>([1, 1])];
            tensor<int32, [2]> var_80 = const()[name = tensor<string, []>("op_80"), val = tensor<int32, [2]>([1, 1])];
            tensor<string, []> input_13_pad_type_0 = const()[name = tensor<string, []>("input_13_pad_type_0"), val = tensor<string, []>("custom")];
            tensor<int32, [4]> input_13_pad_0 = const()[name = tensor<string, []>("input_13_pad_0"), val = tensor<int32, [4]>([0, 0, 0, 0])];
            tensor<fp16, [1280, 1280, 1, 1]> time_embedding_linear_2_weight_to_fp16_palettized = constexpr_lut_to_dense()[indices = tensor<uint8, [1228800]>(BLOBFILE(path = tensor<string, []>("@model_path/weights/weight.bin"), offset = tensor<uint64, []>(310528))), lut = tensor<fp16, [64]>(BLOBFILE(path = tensor<string, []>("@model_path/weights/weight.bin"), offset = tensor<uint64, []>(1539392))), name = tensor<string, []>("time_embedding_linear_2_weight_to_fp16_palettized"), shape = tensor<uint32, [4]>([1280, 1280, 1, 1])];
            tensor<fp16, [1280]> time_embedding_linear_2_bias_to_fp16 = const()[name = tensor<string, []>("time_embedding_linear_2_bias_to_fp16"), val = tensor<fp16, [1280]>(BLOBFILE(path = tensor<string, []>("@model_path/weights/weight.bin"), offset = tensor<uint64, []>(1539584)))];
            tensor<fp16, [2, 1280, 1, 1]> input_13_cast = conv(bias = time_embedding_linear_2_bias_to_fp16, dilations = var_80, groups = var_59, pad = input_13_pad_0, pad_type = input_13_pad_type_0, strides = var_78, weight = time_embedding_linear_2_weight_to_fp16_palettized, x = input_5_cast)[name = tensor<string, []>("input_13_cast")];
            tensor<int32, []> var_86 = const()[name = tensor<string, []>("op_86"), val = tensor<int32, []>(1)];
            tensor<int32, [2]> var_89 = const()[name = tensor<string, []>("op_89"), val = tensor<int32, [2]>([1, 1])];
            tensor<int32, [2]> var_91 = const()[name = tensor<string, []>("op_91"), val = tensor<int32, [2]>([1, 1])];
            tensor<string, []> input_7_pad_type_0 = const()[name = tensor<string, []>("input_7_pad_type_0"), val = tensor<string, []>("custom")];
            tensor<int32, [4]> input_7_pad_0 = const()[name = tensor<string, []>("input_7_pad_0"), val = tensor<int32, [4]>([1, 1, 1, 1])];
            tensor<fp16, [320, 4, 3, 3]> conv_in_weight_to_fp16_palettized = constexpr_lut_to_dense()[indices = tensor<uint8, [8640]>(BLOBFILE(path = tensor<string, []>("@model_path/weights/weight.bin"), offset = tensor<uint64, []>(1542208))), lut = tensor<fp16, [64]>(BLOBFILE(path = tensor<string, []>("@model_path/weights/weight.bin"), offset = tensor<uint64, []>(1550912))), name = tensor<string, []>("conv_in_weight_to_fp16_palettized"), shape = tensor<uint32, [4]>([320, 4, 3, 3])];
            tensor<fp16, [320]> conv_in_bias_to_fp16 = const()[name = tensor<string, []>("conv_in_bias_to_fp16"), val = tensor<fp16, [320]>(BLOBFILE(path = tensor<string, []>("@model_path/weights/weight.bin"), offset = tensor<uint64, []>(1551104)))];
            tensor<fp16, [2, 320, 64, 64]> input_7_cast = conv(bias = conv_in_bias_to_fp16, dilations = var_91, groups = var_86, pad = input_7_pad_0, pad_type = input_7_pad_type_0, strides = var_89, weight = conv_in_weight_to_fp16_palettized, x = sample)[name = tensor<string, []>("input_7_cast")];
            tensor<int32, []> var_95 = const()[name = tensor<string, []>("op_95"), val = tensor<int32, []>(3)];
            tensor<bool, []> var_118 = const()[name = tensor<string, []>("op_118"), val = tensor<bool, []>(true)];
            tensor<int32, []> var_123 = const()[name = tensor<string, []>("op_123"), val = tensor<int32, []>(1)];
            tensor<int32, [5]> reshape_0_shape_0 = const()[name = tensor<string, []>("reshape_0_shape_0"), val = tensor<int32, [5]>([2, 32, 10, 64, 64])];
            tensor<fp16, [2, 32, 10, 64, 64]> reshape_0_cast = reshape(shape = reshape_0_shape_0, x = input_7_cast)[name = tensor<string, []>("reshape_0_cast")];
            tensor<int32, [3]> reduce_mean_0_axes_0 = const()[name = tensor<string, []>("reduce_mean_0_axes_0"), val = tensor<int32, [3]>([2, 3, 4])];
            tensor<bool, []> reduce_mean_0_keep_dims_0 = const()[name = tensor<string, []>("reduce_mean_0_keep_dims_0"), val = tensor<bool, []>(true)];
            tensor<fp16, [2, 32, 1, 1, 1]> reduce_mean_0_cast = reduce_mean(axes = reduce_mean_0_axes_0, keep_dims = reduce_mean_0_keep_dims_0, x = reshape_0_cast)[name = tensor<string, []>("reduce_mean_0_cast")];
            tensor<fp16, [2, 32, 10, 64, 64]> sub_0_cast = sub(x = reshape_0_cast, y = reduce_mean_0_cast)[name = tensor<string, []>("sub_0_cast")];
            tensor<fp16, [2, 32, 10, 64, 64]> square_0_cast = square(x = sub_0_cast)[name = tensor<string, []>("square_0_cast")];
            tensor<int32, [3]> reduce_mean_2_axes_0 = const()[name = tensor<string, []>("reduce_mean_2_axes_0"), val = tensor<int32, [3]>([2, 3, 4])];
            tensor<bool, []> reduce_mean_2_keep_dims_0 = const()[name = tensor<string, []>("reduce_mean_2_keep_dims_0"), val = tensor<bool, []>(true)];
            tensor<fp16, [2, 32, 1, 1, 1]> reduce_mean_2_cast = reduce_mean(axes = reduce_mean_2_axes_0, keep_dims = reduce_mean_2_keep_dims_0, x = square_0_cast)[name = tensor<string, []>("reduce_mean_2_cast")];
            tensor<fp16, []> add_0_y_0_to_fp16 = const()[name = tensor<string, []>("add_0_y_0_to_fp16"), val = tensor<fp16, []>(0x1.5p-17)];
            tensor<fp16, [2, 32, 1, 1, 1]> add_0_cast = add(x = reduce_mean_2_cast, y = add_0_y_0_to_fp16)[name = tensor<string, []>("add_0_cast")];
            tensor<fp16, [2, 32, 1, 1, 1]> sqrt_0_cast = sqrt(x = add_0_cast)[name = tensor<string, []>("sqrt_0_cast")];
            tensor<fp16, [2, 32, 10, 64, 64]> real_div_0_cast = real_div(x = sub_0_cast, y = sqrt_0_cast)[name = tensor<string, []>("real_div_0_cast")];
            tensor<int32, [4]> reshape_1_shape_0 = const()[name = tensor<string, []>("reshape_1_shape_0"), val = tensor<int32, [4]>([2, 320, 64, 64])];
            tensor<fp16, [2, 320, 64, 64]> reshape_1_cast = reshape(shape = reshape_1_shape_0, x = real_div_0_cast)[name = tensor<string, []>("reshape_1_cast")];
            tensor<fp16, [320]> add_1_mean_0_to_fp16 = const()[name = tensor<string, []>("add_1_mean_0_to_fp16"), val = tensor<fp16, [320]>(BLOBFILE(path = tensor<string, []>("@model_path/weights/weight.bin"), offset = tensor<uint64, []>(1551808)))];
            tensor<fp16, [320]> add_1_variance_0_to_fp16 = const()[name = tensor<string, []>("add_1_variance_0_to_fp16"), val = tensor<fp16, [320]>(BLOBFILE(path = tensor<string, []>("@model_path/weights/weight.bin"), offset = tensor<uint64, []>(1552512)))];
            tensor<fp16, [320]> add_1_gamma_0_to_fp16 = const()[name = tensor<string, []>("add_1_gamma_0_to_fp16"), val = tensor<fp16, [320]>(BLOBFILE(path = tensor<string, []>("@model_path/weights/weight.bin"), offset = tensor<uint64, []>(1553216)))];
            tensor<fp16, [320]> add_1_beta_0_to_fp16 = const()[name = tensor<string, []>("add_1_beta_0_to_fp16"), val = tensor<fp16, [320]>(BLOBFILE(path = tensor<string, []>("@model_path/weights/weight.bin"), offset = tensor<uint64, []>(1553920)))];
            tensor<fp16, []> add_1_epsilon_0_to_fp16 = const()[name = tensor<string, []>("add_1_epsilon_0_to_fp16"), val = tensor<fp16, []>(0x1.5p-17)];
            tensor<fp16, [2, 320, 64, 64]> add_1_cast = batch_norm(beta = add_1_beta_0_to_fp16, epsilon = add_1_epsilon_0_to_fp16, gamma = add_1_gamma_0_to_fp16, mean = add_1_mean_0_to_fp16, variance = add_1_variance_0_to_fp16, x = reshape_1_cast)[name = tensor<string, []>("add_1_cast")];
            tensor<fp16, [2, 320, 64, 64]> input_11_cast = silu(x = add_1_cast)[name = tensor<string, []>("input_11_cast")];
            tensor<int32, [2]> var_145 = const()[name = tensor<string, []>("op_145"), val = tensor<int32, [2]>([1, 1])];
            tensor<int32, [2]> var_147 = const()[name = tensor<string, []>("op_147"), val = tensor<int32, [2]>([1, 1])];
            tensor<string, []> hidden_states_1_pad_type_0 = const()[name = tensor<string, []>("hidden_states_1_pad_type_0"), val = tensor<string, []>("custom")];
            tensor<int32, [4]> hidden_states_1_pad_0 = const()[name = tensor<string, []>("hidden_states_1_pad_0"), val = tensor<int32, [4]>([1, 1, 1, 1])];
            tensor<fp16, [320, 320, 3, 3]> down_blocks_0_resnets_0_conv1_weight_to_fp16_palettized = constexpr_lut_to_dense()[indices = tensor<uint8, [691200]>(BLOBFILE(path = tensor<string, []>("@model_path/weights/weight.bin"), offset = tensor<uint64, []>(1554624))), lut = tensor<fp16, [64]>(BLOBFILE(path = tensor<string, []>("@model_path/weights/weight.bin"), offset = tensor<uint64, []>(2245888))), name = tensor<string, []>("down_blocks_0_resnets_0_conv1_weight_to_fp16_palettized"), shape = tensor<uint32, [4]>([320, 320, 3, 3])];
            tensor<fp16, [320]> down_blocks_0_resnets_0_conv1_bias_to_fp16 = const()[name = tensor<string, []>("down_blocks_0_resnets_0_conv1_bias_to_fp16"), val = tensor<fp16, [320]>(BLOBFILE(path = tensor<string, []>("@model_path/weights/weight.bin"), offset = tensor<uint64, []>(2246080)))];
            tensor<fp16, [2, 320, 64, 64]> hidden_states_1_cast = conv(bias = down_blocks_0_resnets_0_conv1_bias_to_fp16, dilations = var_147, groups = var_123, pad = hidden_states_1_pad_0, pad_type = hidden_states_1_pad_type_0, strides = var_145, weight = down_blocks_0_resnets_0_conv1_weight_to_fp16_palettized, x = input_11_cast)[name = tensor<string, []>("hidden_states_1_cast")];
            tensor<fp16, [2, 1280, 1, 1]> input_15_cast = silu(x = input_13_cast)[name = tensor<string, []>("input_15_cast")];
            tensor<int32, [2]> var_153 = const()[name = tensor<string, []>("op_153"), val = tensor<int32, [2]>([1, 1])];
            tensor<int32, [2]> var_155 = const()[name = tensor<string, []>("op_155"), val = tensor<int32, [2]>([1, 1])];
            tensor<string, []> temb_1_pad_type_0 = const()[name = tensor<string, []>("temb_1_pad_type_0"), val = tensor<string, []>("custom")];
            tensor<int32, [4]> temb_1_pad_0 = const()[name = tensor<string, []>("temb_1_pad_0"), val = tensor<int32, [4]>([0, 0, 0, 0])];
            tensor<fp16, [320, 1280, 1, 1]> down_blocks_0_resnets_0_time_emb_proj_weight_to_fp16_palettized = constexpr_lut_to_dense()[indices = tensor<uint8, [307200]>(BLOBFILE(path = tensor<string, []>("@model_path/weights/weight.bin"), offset = tensor<uint64, []>(2246784))), lut = tensor<fp16, [64]>(BLOBFILE(path = tensor<string, []>("@model_path/weights/weight.bin"), offset = tensor<uint64, []>(2554048))), name = tensor<string, []>("down_blocks_0_resnets_0_time_emb_proj_weight_to_fp16_palettized"), shape = tensor<uint32, [4]>([320, 1280, 1, 1])];
            tensor<fp16, [320]> down_blocks_0_resnets_0_time_emb_proj_bias_to_fp16 = const()[name = tensor<string, []>("down_blocks_0_resnets_0_time_emb_proj_bias_to_fp16"), val = tensor<fp16, [320]>(BLOBFILE(path = tensor<string, []>("@model_path/weights/weight.bin"), offset = tensor<uint64, []>(2554240)))];
            tensor<fp16, [2, 320, 1, 1]> temb_1_cast = conv(bias = down_blocks_0_resnets_0_time_emb_proj_bias_to_fp16, dilations = var_155, groups = var_123, pad = temb_1_pad_0, pad_type = temb_1_pad_type_0, strides = var_153, weight = down_blocks_0_resnets_0_time_emb_proj_weight_to_fp16_palettized, x = input_15_cast)[name = tensor<string, []>("temb_1_cast")];
            tensor<fp16, [2, 320, 64, 64]> input_17_cast = add(x = hidden_states_1_cast, y = temb_1_cast)[name = tensor<string, []>("input_17_cast")];
            tensor<int32, [5]> reshape_4_shape_0 = const()[name = tensor<string, []>("reshape_4_shape_0"), val = tensor<int32, [5]>([2, 32, 10, 64, 64])];
            tensor<fp16, [2, 32, 10, 64, 64]> reshape_4_cast = reshape(shape = reshape_4_shape_0, x = input_17_cast)[name = tensor<string, []>("reshape_4_cast")];
            tensor<int32, [3]> reduce_mean_3_axes_0 = const()[name = tensor<string, []>("reduce_mean_3_axes_0"), val = tensor<int32, [3]>([2, 3, 4])];
            tensor<bool, []> reduce_mean_3_keep_dims_0 = const()[name = tensor<string, []>("reduce_mean_3_keep_dims_0"), val = tensor<bool, []>(true)];
            tensor<fp16, [2, 32, 1, 1, 1]> reduce_mean_3_cast = reduce_mean(axes = reduce_mean_3_axes_0, keep_dims = reduce_mean_3_keep_dims_0, x = reshape_4_cast)[name = tensor<string, []>("reduce_mean_3_cast")];
            tensor<fp16, [2, 32, 10, 64, 64]> sub_2_cast = sub(x = reshape_4_cast, y = reduce_mean_3_cast)[name = tensor<string, []>("sub_2_cast")];
            tensor<fp16, [2, 32, 10, 64, 64]> square_1_cast = square(x = sub_2_cast)[name = tensor<string, []>("square_1_cast")];
            tensor<int32, [3]> reduce_mean_5_axes_0 = const()[name = tensor<string, []>("reduce_mean_5_axes_0"), val = tensor<int32, [3]>([2, 3, 4])];
            tensor<bool, []> reduce_mean_5_keep_dims_0 = const()[name = tensor<string, []>("reduce_mean_5_keep_dims_0"), val = tensor<bool, []>(true)];
            tensor<fp16, [2, 32, 1, 1, 1]> reduce_mean_5_cast = reduce_mean(axes = reduce_mean_5_axes_0, keep_dims = reduce_mean_5_keep_dims_0, x = square_1_cast)[name = tensor<string, []>("reduce_mean_5_cast")];
            tensor<fp16, []> add_2_y_0_to_fp16 = const()[name = tensor<string, []>("add_2_y_0_to_fp16"), val = tensor<fp16, []>(0x1.5p-17)];
            tensor<fp16, [2, 32, 1, 1, 1]> add_2_cast = add(x = reduce_mean_5_cast, y = add_2_y_0_to_fp16)[name = tensor<string, []>("add_2_cast")];
            tensor<fp16, [2, 32, 1, 1, 1]> sqrt_1_cast = sqrt(x = add_2_cast)[name = tensor<string, []>("sqrt_1_cast")];
            tensor<fp16, [2, 32, 10, 64, 64]> real_div_1_cast = real_div(x = sub_2_cast, y = sqrt_1_cast)[name = tensor<string, []>("real_div_1_cast")];
            tensor<int32, [4]> reshape_5_shape_0 = const()[name = tensor<string, []>("reshape_5_shape_0"), val = tensor<int32, [4]>([2, 320, 64, 64])];
            tensor<fp16, [2, 320, 64, 64]> reshape_5_cast = reshape(shape = reshape_5_shape_0, x = real_div_1_cast)[name = tensor<string, []>("reshape_5_cast")];
            tensor<fp16, [320]> add_3_gamma_0_to_fp16 = const()[name = tensor<string, []>("add_3_gamma_0_to_fp16"), val = tensor<fp16, [320]>(BLOBFILE(path = tensor<string, []>("@model_path/weights/weight.bin"), offset = tensor<uint64, []>(2554944)))];
            tensor<fp16, [320]> add_3_beta_0_to_fp16 = const()[name = tensor<string, []>("add_3_beta_0_to_fp16"), val = tensor<fp16, [320]>(BLOBFILE(path = tensor<string, []>("@model_path/weights/weight.bin"), offset = tensor<uint64, []>(2555648)))];
            tensor<fp16, []> add_3_epsilon_0_to_fp16 = const()[name = tensor<string, []>("add_3_epsilon_0_to_fp16"), val = tensor<fp16, []>(0x1.5p-17)];
            tensor<fp16, [2, 320, 64, 64]> add_3_cast = batch_norm(beta = add_3_beta_0_to_fp16, epsilon = add_3_epsilon_0_to_fp16, gamma = add_3_gamma_0_to_fp16, mean = add_1_mean_0_to_fp16, variance = add_1_variance_0_to_fp16, x = reshape_5_cast)[name = tensor<string, []>("add_3_cast")];
            tensor<fp16, [2, 320, 64, 64]> input_21_cast = silu(x = add_3_cast)[name = tensor<string, []>("input_21_cast")];
            tensor<int32, [2]> var_165 = const()[name = tensor<string, []>("op_165"), val = tensor<int32, [2]>([1, 1])];
            tensor<int32, [2]> var_167 = const()[name = tensor<string, []>("op_167"), val = tensor<int32, [2]>([1, 1])];
            tensor<string, []> hidden_states_3_pad_type_0 = const()[name = tensor<string, []>("hidden_states_3_pad_type_0"), val = tensor<string, []>("custom")];
            tensor<int32, [4]> hidden_states_3_pad_0 = const()[name = tensor<string, []>("hidden_states_3_pad_0"), val = tensor<int32, [4]>([1, 1, 1, 1])];
            tensor<fp16, [320, 320, 3, 3]> down_blocks_0_resnets_0_conv2_weight_to_fp16_palettized = constexpr_lut_to_dense()[indices = tensor<uint8, [691200]>(BLOBFILE(path = tensor<string, []>("@model_path/weights/weight.bin"), offset = tensor<uint64, []>(2556352))), lut = tensor<fp16, [64]>(BLOBFILE(path = tensor<string, []>("@model_path/weights/weight.bin"), offset = tensor<uint64, []>(3247616))), name = tensor<string, []>("down_blocks_0_resnets_0_conv2_weight_to_fp16_palettized"), shape = tensor<uint32, [4]>([320, 320, 3, 3])];
            tensor<fp16, [320]> down_blocks_0_resnets_0_conv2_bias_to_fp16 = const()[name = tensor<string, []>("down_blocks_0_resnets_0_conv2_bias_to_fp16"), val = tensor<fp16, [320]>(BLOBFILE(path = tensor<string, []>("@model_path/weights/weight.bin"), offset = tensor<uint64, []>(3247808)))];
            tensor<fp16, [2, 320, 64, 64]> hidden_states_3_cast = conv(bias = down_blocks_0_resnets_0_conv2_bias_to_fp16, dilations = var_167, groups = var_123, pad = hidden_states_3_pad_0, pad_type = hidden_states_3_pad_type_0, strides = var_165, weight = down_blocks_0_resnets_0_conv2_weight_to_fp16_palettized, x = input_21_cast)[name = tensor<string, []>("hidden_states_3_cast")];
            tensor<fp16, [2, 320, 64, 64]> hidden_states_5_cast = add(x = input_7_cast, y = hidden_states_3_cast)[name = tensor<string, []>("hidden_states_5_cast")];
            tensor<int32, [5]> reshape_8_shape_0 = const()[name = tensor<string, []>("reshape_8_shape_0"), val = tensor<int32, [5]>([2, 32, 10, 64, 64])];
            tensor<fp16, [2, 32, 10, 64, 64]> reshape_8_cast = reshape(shape = reshape_8_shape_0, x = hidden_states_5_cast)[name = tensor<string, []>("reshape_8_cast")];
            tensor<int32, [3]> reduce_mean_6_axes_0 = const()[name = tensor<string, []>("reduce_mean_6_axes_0"), val = tensor<int32, [3]>([2, 3, 4])];
            tensor<bool, []> reduce_mean_6_keep_dims_0 = const()[name = tensor<string, []>("reduce_mean_6_keep_dims_0"), val = tensor<bool, []>(true)];
            tensor<fp16, [2, 32, 1, 1, 1]> reduce_mean_6_cast = reduce_mean(axes = reduce_mean_6_axes_0, keep_dims = reduce_mean_6_keep_dims_0, x = reshape_8_cast)[name = tensor<string, []>("reduce_mean_6_cast")];
            tensor<fp16, [2, 32, 10, 64, 64]> sub_4_cast = sub(x = reshape_8_cast, y = reduce_mean_6_cast)[name = tensor<string, []>("sub_4_cast")];
            tensor<fp16, [2, 32, 10, 64, 64]> square_2_cast = square(x = sub_4_cast)[name = tensor<string, []>("square_2_cast")];
            tensor<int32, [3]> reduce_mean_8_axes_0 = const()[name = tensor<string, []>("reduce_mean_8_axes_0"), val = tensor<int32, [3]>([2, 3, 4])];
            tensor<bool, []> reduce_mean_8_keep_dims_0 = const()[name = tensor<string, []>("reduce_mean_8_keep_dims_0"), val = tensor<bool, []>(true)];
            tensor<fp16, [2, 32, 1, 1, 1]> reduce_mean_8_cast = reduce_mean(axes = reduce_mean_8_axes_0, keep_dims = reduce_mean_8_keep_dims_0, x = square_2_cast)[name = tensor<string, []>("reduce_mean_8_cast")];
            tensor<fp16, []> add_4_y_0_to_fp16 = const()[name = tensor<string, []>("add_4_y_0_to_fp16"), val = tensor<fp16, []>(0x1.1p-20)];
            tensor<fp16, [2, 32, 1, 1, 1]> add_4_cast = add(x = reduce_mean_8_cast, y = add_4_y_0_to_fp16)[name = tensor<string, []>("add_4_cast")];
            tensor<fp16, [2, 32, 1, 1, 1]> sqrt_2_cast = sqrt(x = add_4_cast)[name = tensor<string, []>("sqrt_2_cast")];
            tensor<fp16, [2, 32, 10, 64, 64]> real_div_2_cast = real_div(x = sub_4_cast, y = sqrt_2_cast)[name = tensor<string, []>("real_div_2_cast")];
            tensor<int32, [4]> reshape_9_shape_0 = const()[name = tensor<string, []>("reshape_9_shape_0"), val = tensor<int32, [4]>([2, 320, 64, 64])];
            tensor<fp16, [2, 320, 64, 64]> reshape_9_cast = reshape(shape = reshape_9_shape_0, x = real_div_2_cast)[name = tensor<string, []>("reshape_9_cast")];
            tensor<fp16, [320]> add_5_gamma_0_to_fp16 = const()[name = tensor<string, []>("add_5_gamma_0_to_fp16"), val = tensor<fp16, [320]>(BLOBFILE(path = tensor<string, []>("@model_path/weights/weight.bin"), offset = tensor<uint64, []>(3248512)))];
            tensor<fp16, [320]> add_5_beta_0_to_fp16 = const()[name = tensor<string, []>("add_5_beta_0_to_fp16"), val = tensor<fp16, [320]>(BLOBFILE(path = tensor<string, []>("@model_path/weights/weight.bin"), offset = tensor<uint64, []>(3249216)))];
            tensor<fp16, []> add_5_epsilon_0_to_fp16 = const()[name = tensor<string, []>("add_5_epsilon_0_to_fp16"), val = tensor<fp16, []>(0x1.5p-17)];
            tensor<fp16, [2, 320, 64, 64]> add_5_cast = batch_norm(beta = add_5_beta_0_to_fp16, epsilon = add_5_epsilon_0_to_fp16, gamma = add_5_gamma_0_to_fp16, mean = add_1_mean_0_to_fp16, variance = add_1_variance_0_to_fp16, x = reshape_9_cast)[name = tensor<string, []>("add_5_cast")];
            tensor<int32, [2]> var_187 = const()[name = tensor<string, []>("op_187"), val = tensor<int32, [2]>([1, 1])];
            tensor<int32, [2]> var_189 = const()[name = tensor<string, []>("op_189"), val = tensor<int32, [2]>([1, 1])];
            tensor<string, []> hidden_states_7_pad_type_0 = const()[name = tensor<string, []>("hidden_states_7_pad_type_0"), val = tensor<string, []>("custom")];
            tensor<int32, [4]> hidden_states_7_pad_0 = const()[name = tensor<string, []>("hidden_states_7_pad_0"), val = tensor<int32, [4]>([0, 0, 0, 0])];
            tensor<fp16, [320, 320, 1, 1]> down_blocks_0_attentions_0_proj_in_weight_to_fp16_palettized = constexpr_lut_to_dense()[indices = tensor<uint8, [76800]>(BLOBFILE(path = tensor<string, []>("@model_path/weights/weight.bin"), offset = tensor<uint64, []>(3249920))), lut = tensor<fp16, [64]>(BLOBFILE(path = tensor<string, []>("@model_path/weights/weight.bin"), offset = tensor<uint64, []>(3326784))), name = tensor<string, []>("down_blocks_0_attentions_0_proj_in_weight_to_fp16_palettized"), shape = tensor<uint32, [4]>([320, 320, 1, 1])];
            tensor<fp16, [320]> down_blocks_0_attentions_0_proj_in_bias_to_fp16 = const()[name = tensor<string, []>("down_blocks_0_attentions_0_proj_in_bias_to_fp16"), val = tensor<fp16, [320]>(BLOBFILE(path = tensor<string, []>("@model_path/weights/weight.bin"), offset = tensor<uint64, []>(3326976)))];
            tensor<fp16, [2, 320, 64, 64]> hidden_states_7_cast = conv(bias = down_blocks_0_attentions_0_proj_in_bias_to_fp16, dilations = var_189, groups = var_123, pad = hidden_states_7_pad_0, pad_type = hidden_states_7_pad_type_0, strides = var_187, weight = down_blocks_0_attentions_0_proj_in_weight_to_fp16_palettized, x = add_5_cast)[name = tensor<string, []>("hidden_states_7_cast")];
            tensor<int32, [4]> var_194 = const()[name = tensor<string, []>("op_194"), val = tensor<int32, [4]>([2, 320, 1, 4096])];
            tensor<fp16, [2, 320, 1, 4096]> inputs_1_cast = reshape(shape = var_194, x = hidden_states_7_cast)[name = tensor<string, []>("inputs_1_cast")];
            tensor<int32, [1]> var_204 = const()[name = tensor<string, []>("op_204"), val = tensor<int32, [1]>([1])];
            tensor<fp16, [2, 1, 1, 4096]> channels_mean_1_cast = reduce_mean(axes = var_204, keep_dims = var_118, x = inputs_1_cast)[name = tensor<string, []>("channels_mean_1_cast")];
            tensor<fp16, [2, 320, 1, 4096]> zero_mean_1_cast = sub(x = inputs_1_cast, y = channels_mean_1_cast)[name = tensor<string, []>("zero_mean_1_cast")];
            tensor<fp16, [2, 320, 1, 4096]> zero_mean_sq_1_cast = mul(x = zero_mean_1_cast, y = zero_mean_1_cast)[name = tensor<string, []>("zero_mean_sq_1_cast")];
            tensor<int32, [1]> var_208 = const()[name = tensor<string, []>("op_208"), val = tensor<int32, [1]>([1])];
            tensor<fp16, [2, 1, 1, 4096]> var_209_cast = reduce_mean(axes = var_208, keep_dims = var_118, x = zero_mean_sq_1_cast)[name = tensor<string, []>("op_209_cast")];
            tensor<fp16, []> var_210_to_fp16 = const()[name = tensor<string, []>("op_210_to_fp16"), val = tensor<fp16, []>(0x1.5p-17)];
            tensor<fp16, [2, 1, 1, 4096]> var_211_cast = add(x = var_209_cast, y = var_210_to_fp16)[name = tensor<string, []>("op_211_cast")];
            tensor<fp16, []> denom_1_epsilon_0_to_fp16 = const()[name = tensor<string, []>("denom_1_epsilon_0_to_fp16"), val = tensor<fp16, []>(0x1p-24)];
            tensor<fp16, [2, 1, 1, 4096]> denom_1_cast = rsqrt(epsilon = denom_1_epsilon_0_to_fp16, x = var_211_cast)[name = tensor<string, []>("denom_1_cast")];
            tensor<fp16, [2, 320, 1, 4096]> out_1_cast = mul(x = zero_mean_1_cast, y = denom_1_cast)[name = tensor<string, []>("out_1_cast")];
            tensor<fp16, [1, 320, 1, 1]> var_215_to_fp16 = const()[name = tensor<string, []>("op_215_to_fp16"), val = tensor<fp16, [1, 320, 1, 1]>(BLOBFILE(path = tensor<string, []>("@model_path/weights/weight.bin"), offset = tensor<uint64, []>(3327680)))];
            tensor<fp16, [2, 320, 1, 4096]> var_216_cast = add(x = out_1_cast, y = var_215_to_fp16)[name = tensor<string, []>("op_216_cast")];
            tensor<fp16, [1, 320, 1, 1]> var_218_to_fp16 = const()[name = tensor<string, []>("op_218_to_fp16"), val = tensor<fp16, [1, 320, 1, 1]>(BLOBFILE(path = tensor<string, []>("@model_path/weights/weight.bin"), offset = tensor<uint64, []>(3328384)))];
            tensor<fp16, [2, 320, 1, 4096]> hidden_states_9_cast = mul(x = var_216_cast, y = var_218_to_fp16)[name = tensor<string, []>("hidden_states_9_cast")];
            tensor<int32, [2]> var_225 = const()[name = tensor<string, []>("op_225"), val = tensor<int32, [2]>([1, 1])];
            tensor<int32, [2]> var_227 = const()[name = tensor<string, []>("op_227"), val = tensor<int32, [2]>([1, 1])];
            tensor<string, []> q_1_pad_type_0 = const()[name = tensor<string, []>("q_1_pad_type_0"), val = tensor<string, []>("custom")];
            tensor<int32, [4]> q_1_pad_0 = const()[name = tensor<string, []>("q_1_pad_0"), val = tensor<int32, [4]>([0, 0, 0, 0])];
            tensor<fp16, [320, 320, 1, 1]> down_blocks_0_attentions_0_transformer_blocks_0_attn1_to_q_weight_to_fp16_palettized = constexpr_lut_to_dense()[indices = tensor<uint8, [76800]>(BLOBFILE(path = tensor<string, []>("@model_path/weights/weight.bin"), offset = tensor<uint64, []>(3329088))), lut = tensor<fp16, [64]>(BLOBFILE(path = tensor<string, []>("@model_path/weights/weight.bin"), offset = tensor<uint64, []>(3405952))), name = tensor<string, []>("down_blocks_0_attentions_0_transformer_blocks_0_attn1_to_q_weight_to_fp16_palettized"), shape = tensor<uint32, [4]>([320, 320, 1, 1])];
            tensor<fp16, [2, 320, 1, 4096]> q_1_cast = conv(dilations = var_227, groups = var_123, pad = q_1_pad_0, pad_type = q_1_pad_type_0, strides = var_225, weight = down_blocks_0_attentions_0_transformer_blocks_0_attn1_to_q_weight_to_fp16_palettized, x = hidden_states_9_cast)[name = tensor<string, []>("q_1_cast")];
            tensor<int32, [2]> var_231 = const()[name = tensor<string, []>("op_231"), val = tensor<int32, [2]>([1, 1])];
            tensor<int32, [2]> var_233 = const()[name = tensor<string, []>("op_233"), val = tensor<int32, [2]>([1, 1])];
            tensor<string, []> k_1_pad_type_0 = const()[name = tensor<string, []>("k_1_pad_type_0"), val = tensor<string, []>("custom")];
            tensor<int32, [4]> k_1_pad_0 = const()[name = tensor<string, []>("k_1_pad_0"), val = tensor<int32, [4]>([0, 0, 0, 0])];
            tensor<fp16, [320, 320, 1, 1]> down_blocks_0_attentions_0_transformer_blocks_0_attn1_to_k_weight_to_fp16_palettized = constexpr_lut_to_dense()[indices = tensor<uint8, [76800]>(BLOBFILE(path = tensor<string, []>("@model_path/weights/weight.bin"), offset = tensor<uint64, []>(3406144))), lut = tensor<fp16, [64]>(BLOBFILE(path = tensor<string, []>("@model_path/weights/weight.bin"), offset = tensor<uint64, []>(3483008))), name = tensor<string, []>("down_blocks_0_attentions_0_transformer_blocks_0_attn1_to_k_weight_to_fp16_palettized"), shape = tensor<uint32, [4]>([320, 320, 1, 1])];
            tensor<fp16, [2, 320, 1, 4096]> k_1_cast = conv(dilations = var_233, groups = var_123, pad = k_1_pad_0, pad_type = k_1_pad_type_0, strides = var_231, weight = down_blocks_0_attentions_0_transformer_blocks_0_attn1_to_k_weight_to_fp16_palettized, x = hidden_states_9_cast)[name = tensor<string, []>("k_1_cast")];
            tensor<int32, [2]> var_237 = const()[name = tensor<string, []>("op_237"), val = tensor<int32, [2]>([1, 1])];
            tensor<int32, [2]> var_239 = const()[name = tensor<string, []>("op_239"), val = tensor<int32, [2]>([1, 1])];
            tensor<string, []> v_1_pad_type_0 = const()[name = tensor<string, []>("v_1_pad_type_0"), val = tensor<string, []>("custom")];
            tensor<int32, [4]> v_1_pad_0 = const()[name = tensor<string, []>("v_1_pad_0"), val = tensor<int32, [4]>([0, 0, 0, 0])];
            tensor<fp16, [320, 320, 1, 1]> down_blocks_0_attentions_0_transformer_blocks_0_attn1_to_v_weight_to_fp16_palettized = constexpr_lut_to_dense()[indices = tensor<uint8, [76800]>(BLOBFILE(path = tensor<string, []>("@model_path/weights/weight.bin"), offset = tensor<uint64, []>(3483200))), lut = tensor<fp16, [64]>(BLOBFILE(path = tensor<string, []>("@model_path/weights/weight.bin"), offset = tensor<uint64, []>(3560064))), name = tensor<string, []>("down_blocks_0_attentions_0_transformer_blocks_0_attn1_to_v_weight_to_fp16_palettized"), shape = tensor<uint32, [4]>([320, 320, 1, 1])];
            tensor<fp16, [2, 320, 1, 4096]> v_1_cast = conv(dilations = var_239, groups = var_123, pad = v_1_pad_0, pad_type = v_1_pad_type_0, strides = var_237, weight = down_blocks_0_attentions_0_transformer_blocks_0_attn1_to_v_weight_to_fp16_palettized, x = hidden_states_9_cast)[name = tensor<string, []>("v_1_cast")];
            tensor<int32, [4]> var_243_begin_0 = const()[name = tensor<string, []>("op_243_begin_0"), val = tensor<int32, [4]>([0, 0, 0, 0])];
            tensor<int32, [4]> var_243_end_0 = const()[name = tensor<string, []>("op_243_end_0"), val = tensor<int32, [4]>([2, 40, 1, 4096])];
            tensor<bool, [4]> var_243_end_mask_0 = const()[name = tensor<string, []>("op_243_end_mask_0"), val = tensor<bool, [4]>([true, false, true, true])];
            tensor<fp16, [2, 40, 1, 4096]> var_243_cast = slice_by_index(begin = var_243_begin_0, end = var_243_end_0, end_mask = var_243_end_mask_0, x = q_1_cast)[name = tensor<string, []>("op_243_cast")];
            tensor<int32, [4]> var_247_begin_0 = const()[name = tensor<string, []>("op_247_begin_0"), val = tensor<int32, [4]>([0, 40, 0, 0])];
            tensor<int32, [4]> var_247_end_0 = const()[name = tensor<string, []>("op_247_end_0"), val = tensor<int32, [4]>([2, 80, 1, 4096])];
            tensor<bool, [4]> var_247_end_mask_0 = const()[name = tensor<string, []>("op_247_end_mask_0"), val = tensor<bool, [4]>([true, false, true, true])];
            tensor<fp16, [2, 40, 1, 4096]> var_247_cast = slice_by_index(begin = var_247_begin_0, end = var_247_end_0, end_mask = var_247_end_mask_0, x = q_1_cast)[name = tensor<string, []>("op_247_cast")];
            tensor<int32, [4]> var_251_begin_0 = const()[name = tensor<string, []>("op_251_begin_0"), val = tensor<int32, [4]>([0, 80, 0, 0])];
            tensor<int32, [4]> var_251_end_0 = const()[name = tensor<string, []>("op_251_end_0"), val = tensor<int32, [4]>([2, 120, 1, 4096])];
            tensor<bool, [4]> var_251_end_mask_0 = const()[name = tensor<string, []>("op_251_end_mask_0"), val = tensor<bool, [4]>([true, false, true, true])];
            tensor<fp16, [2, 40, 1, 4096]> var_251_cast = slice_by_index(begin = var_251_begin_0, end = var_251_end_0, end_mask = var_251_end_mask_0, x = q_1_cast)[name = tensor<string, []>("op_251_cast")];
            tensor<int32, [4]> var_255_begin_0 = const()[name = tensor<string, []>("op_255_begin_0"), val = tensor<int32, [4]>([0, 120, 0, 0])];
            tensor<int32, [4]> var_255_end_0 = const()[name = tensor<string, []>("op_255_end_0"), val = tensor<int32, [4]>([2, 160, 1, 4096])];
            tensor<bool, [4]> var_255_end_mask_0 = const()[name = tensor<string, []>("op_255_end_mask_0"), val = tensor<bool, [4]>([true, false, true, true])];
            tensor<fp16, [2, 40, 1, 4096]> var_255_cast = slice_by_index(begin = var_255_begin_0, end = var_255_end_0, end_mask = var_255_end_mask_0, x = q_1_cast)[name = tensor<string, []>("op_255_cast")];
            tensor<int32, [4]> var_259_begin_0 = const()[name = tensor<string, []>("op_259_begin_0"), val = tensor<int32, [4]>([0, 160, 0, 0])];
            tensor<int32, [4]> var_259_end_0 = const()[name = tensor<string, []>("op_259_end_0"), val = tensor<int32, [4]>([2, 200, 1, 4096])];
            tensor<bool, [4]> var_259_end_mask_0 = const()[name = tensor<string, []>("op_259_end_mask_0"), val = tensor<bool, [4]>([true, false, true, true])];
            tensor<fp16, [2, 40, 1, 4096]> var_259_cast = slice_by_index(begin = var_259_begin_0, end = var_259_end_0, end_mask = var_259_end_mask_0, x = q_1_cast)[name = tensor<string, []>("op_259_cast")];
            tensor<int32, [4]> var_263_begin_0 = const()[name = tensor<string, []>("op_263_begin_0"), val = tensor<int32, [4]>([0, 200, 0, 0])];
            tensor<int32, [4]> var_263_end_0 = const()[name = tensor<string, []>("op_263_end_0"), val = tensor<int32, [4]>([2, 240, 1, 4096])];
            tensor<bool, [4]> var_263_end_mask_0 = const()[name = tensor<string, []>("op_263_end_mask_0"), val = tensor<bool, [4]>([true, false, true, true])];
            tensor<fp16, [2, 40, 1, 4096]> var_263_cast = slice_by_index(begin = var_263_begin_0, end = var_263_end_0, end_mask = var_263_end_mask_0, x = q_1_cast)[name = tensor<string, []>("op_263_cast")];
            tensor<int32, [4]> var_267_begin_0 = const()[name = tensor<string, []>("op_267_begin_0"), val = tensor<int32, [4]>([0, 240, 0, 0])];
            tensor<int32, [4]> var_267_end_0 = const()[name = tensor<string, []>("op_267_end_0"), val = tensor<int32, [4]>([2, 280, 1, 4096])];
            tensor<bool, [4]> var_267_end_mask_0 = const()[name = tensor<string, []>("op_267_end_mask_0"), val = tensor<bool, [4]>([true, false, true, true])];
            tensor<fp16, [2, 40, 1, 4096]> var_267_cast = slice_by_index(begin = var_267_begin_0, end = var_267_end_0, end_mask = var_267_end_mask_0, x = q_1_cast)[name = tensor<string, []>("op_267_cast")];
            tensor<int32, [4]> var_271_begin_0 = const()[name = tensor<string, []>("op_271_begin_0"), val = tensor<int32, [4]>([0, 280, 0, 0])];
            tensor<int32, [4]> var_271_end_0 = const()[name = tensor<string, []>("op_271_end_0"), val = tensor<int32, [4]>([2, 320, 1, 4096])];
            tensor<bool, [4]> var_271_end_mask_0 = const()[name = tensor<string, []>("op_271_end_mask_0"), val = tensor<bool, [4]>([true, false, true, true])];
            tensor<fp16, [2, 40, 1, 4096]> var_271_cast = slice_by_index(begin = var_271_begin_0, end = var_271_end_0, end_mask = var_271_end_mask_0, x = q_1_cast)[name = tensor<string, []>("op_271_cast")];
            tensor<int32, [4]> var_274_begin_0 = const()[name = tensor<string, []>("op_274_begin_0"), val = tensor<int32, [4]>([0, 0, 0, 0])];
            tensor<int32, [4]> var_274_end_0 = const()[name = tensor<string, []>("op_274_end_0"), val = tensor<int32, [4]>([2, 40, 1, 512])];
            tensor<bool, [4]> var_274_end_mask_0 = const()[name = tensor<string, []>("op_274_end_mask_0"), val = tensor<bool, [4]>([true, true, true, false])];
            tensor<fp16, [2, 40, 1, 512]> var_274_cast = slice_by_index(begin = var_274_begin_0, end = var_274_end_0, end_mask = var_274_end_mask_0, x = var_243_cast)[name = tensor<string, []>("op_274_cast")];
            tensor<int32, [4]> var_275_begin_0 = const()[name = tensor<string, []>("op_275_begin_0"), val = tensor<int32, [4]>([0, 0, 0, 512])];
            tensor<int32, [4]> var_275_end_0 = const()[name = tensor<string, []>("op_275_end_0"), val = tensor<int32, [4]>([2, 40, 1, 1024])];
            tensor<bool, [4]> var_275_end_mask_0 = const()[name = tensor<string, []>("op_275_end_mask_0"), val = tensor<bool, [4]>([true, true, true, false])];
            tensor<fp16, [2, 40, 1, 512]> var_275_cast = slice_by_index(begin = var_275_begin_0, end = var_275_end_0, end_mask = var_275_end_mask_0, x = var_243_cast)[name = tensor<string, []>("op_275_cast")];
            tensor<int32, [4]> var_276_begin_0 = const()[name = tensor<string, []>("op_276_begin_0"), val = tensor<int32, [4]>([0, 0, 0, 1024])];
            tensor<int32, [4]> var_276_end_0 = const()[name = tensor<string, []>("op_276_end_0"), val = tensor<int32, [4]>([2, 40, 1, 1536])];
            tensor<bool, [4]> var_276_end_mask_0 = const()[name = tensor<string, []>("op_276_end_mask_0"), val = tensor<bool, [4]>([true, true, true, false])];
            tensor<fp16, [2, 40, 1, 512]> var_276_cast = slice_by_index(begin = var_276_begin_0, end = var_276_end_0, end_mask = var_276_end_mask_0, x = var_243_cast)[name = tensor<string, []>("op_276_cast")];
            tensor<int32, [4]> var_277_begin_0 = const()[name = tensor<string, []>("op_277_begin_0"), val = tensor<int32, [4]>([0, 0, 0, 1536])];
            tensor<int32, [4]> var_277_end_0 = const()[name = tensor<string, []>("op_277_end_0"), val = tensor<int32, [4]>([2, 40, 1, 2048])];
            tensor<bool, [4]> var_277_end_mask_0 = const()[name = tensor<string, []>("op_277_end_mask_0"), val = tensor<bool, [4]>([true, true, true, false])];
            tensor<fp16, [2, 40, 1, 512]> var_277_cast = slice_by_index(begin = var_277_begin_0, end = var_277_end_0, end_mask = var_277_end_mask_0, x = var_243_cast)[name = tensor<string, []>("op_277_cast")];
            tensor<int32, [4]> var_278_begin_0 = const()[name = tensor<string, []>("op_278_begin_0"), val = tensor<int32, [4]>([0, 0, 0, 2048])];
            tensor<int32, [4]> var_278_end_0 = const()[name = tensor<string, []>("op_278_end_0"), val = tensor<int32, [4]>([2, 40, 1, 2560])];
            tensor<bool, [4]> var_278_end_mask_0 = const()[name = tensor<string, []>("op_278_end_mask_0"), val = tensor<bool, [4]>([true, true, true, false])];
            tensor<fp16, [2, 40, 1, 512]> var_278_cast = slice_by_index(begin = var_278_begin_0, end = var_278_end_0, end_mask = var_278_end_mask_0, x = var_243_cast)[name = tensor<string, []>("op_278_cast")];
            tensor<int32, [4]> var_279_begin_0 = const()[name = tensor<string, []>("op_279_begin_0"), val = tensor<int32, [4]>([0, 0, 0, 2560])];
            tensor<int32, [4]> var_279_end_0 = const()[name = tensor<string, []>("op_279_end_0"), val = tensor<int32, [4]>([2, 40, 1, 3072])];
            tensor<bool, [4]> var_279_end_mask_0 = const()[name = tensor<string, []>("op_279_end_mask_0"), val = tensor<bool, [4]>([true, true, true, false])];
            tensor<fp16, [2, 40, 1, 512]> var_279_cast = slice_by_index(begin = var_279_begin_0, end = var_279_end_0, end_mask = var_279_end_mask_0, x = var_243_cast)[name = tensor<string, []>("op_279_cast")];
            tensor<int32, [4]> var_280_begin_0 = const()[name = tensor<string, []>("op_280_begin_0"), val = tensor<int32, [4]>([0, 0, 0, 3072])];
            tensor<int32, [4]> var_280_end_0 = const()[name = tensor<string, []>("op_280_end_0"), val = tensor<int32, [4]>([2, 40, 1, 3584])];
            tensor<bool, [4]> var_280_end_mask_0 = const()[name = tensor<string, []>("op_280_end_mask_0"), val = tensor<bool, [4]>([true, true, true, false])];
            tensor<fp16, [2, 40, 1, 512]> var_280_cast = slice_by_index(begin = var_280_begin_0, end = var_280_end_0, end_mask = var_280_end_mask_0, x = var_243_cast)[name = tensor<string, []>("op_280_cast")];
            tensor<int32, [4]> var_281_begin_0 = const()[name = tensor<string, []>("op_281_begin_0"), val = tensor<int32, [4]>([0, 0, 0, 3584])];
            tensor<int32, [4]> var_281_end_0 = const()[name = tensor<string, []>("op_281_end_0"), val = tensor<int32, [4]>([2, 40, 1, 4096])];
            tensor<bool, [4]> var_281_end_mask_0 = const()[name = tensor<string, []>("op_281_end_mask_0"), val = tensor<bool, [4]>([true, true, true, false])];
            tensor<fp16, [2, 40, 1, 512]> var_281_cast = slice_by_index(begin = var_281_begin_0, end = var_281_end_0, end_mask = var_281_end_mask_0, x = var_243_cast)[name = tensor<string, []>("op_281_cast")];
            tensor<int32, [4]> var_282_begin_0 = const()[name = tensor<string, []>("op_282_begin_0"), val = tensor<int32, [4]>([0, 0, 0, 0])];
            tensor<int32, [4]> var_282_end_0 = const()[name = tensor<string, []>("op_282_end_0"), val = tensor<int32, [4]>([2, 40, 1, 512])];
            tensor<bool, [4]> var_282_end_mask_0 = const()[name = tensor<string, []>("op_282_end_mask_0"), val = tensor<bool, [4]>([true, true, true, false])];
            tensor<fp16, [2, 40, 1, 512]> var_282_cast = slice_by_index(begin = var_282_begin_0, end = var_282_end_0, end_mask = var_282_end_mask_0, x = var_247_cast)[name = tensor<string, []>("op_282_cast")];
            tensor<int32, [4]> var_283_begin_0 = const()[name = tensor<string, []>("op_283_begin_0"), val = tensor<int32, [4]>([0, 0, 0, 512])];
            tensor<int32, [4]> var_283_end_0 = const()[name = tensor<string, []>("op_283_end_0"), val = tensor<int32, [4]>([2, 40, 1, 1024])];
            tensor<bool, [4]> var_283_end_mask_0 = const()[name = tensor<string, []>("op_283_end_mask_0"), val = tensor<bool, [4]>([true, true, true, false])];
            tensor<fp16, [2, 40, 1, 512]> var_283_cast = slice_by_index(begin = var_283_begin_0, end = var_283_end_0, end_mask = var_283_end_mask_0, x = var_247_cast)[name = tensor<string, []>("op_283_cast")];
            tensor<int32, [4]> var_284_begin_0 = const()[name = tensor<string, []>("op_284_begin_0"), val = tensor<int32, [4]>([0, 0, 0, 1024])];
            tensor<int32, [4]> var_284_end_0 = const()[name = tensor<string, []>("op_284_end_0"), val = tensor<int32, [4]>([2, 40, 1, 1536])];
            tensor<bool, [4]> var_284_end_mask_0 = const()[name = tensor<string, []>("op_284_end_mask_0"), val = tensor<bool, [4]>([true, true, true, false])];
            tensor<fp16, [2, 40, 1, 512]> var_284_cast = slice_by_index(begin = var_284_begin_0, end = var_284_end_0, end_mask = var_284_end_mask_0, x = var_247_cast)[name = tensor<string, []>("op_284_cast")];
            tensor<int32, [4]> var_285_begin_0 = const()[name = tensor<string, []>("op_285_begin_0"), val = tensor<int32, [4]>([0, 0, 0, 1536])];
            tensor<int32, [4]> var_285_end_0 = const()[name = tensor<string, []>("op_285_end_0"), val = tensor<int32, [4]>([2, 40, 1, 2048])];
            tensor<bool, [4]> var_285_end_mask_0 = const()[name = tensor<string, []>("op_285_end_mask_0"), val = tensor<bool, [4]>([true, true, true, false])];
            tensor<fp16, [2, 40, 1, 512]> var_285_cast = slice_by_index(begin = var_285_begin_0, end = var_285_end_0, end_mask = var_285_end_mask_0, x = var_247_cast)[name = tensor<string, []>("op_285_cast")];
            tensor<int32, [4]> var_286_begin_0 = const()[name = tensor<string, []>("op_286_begin_0"), val = tensor<int32, [4]>([0, 0, 0, 2048])];
            tensor<int32, [4]> var_286_end_0 = const()[name = tensor<string, []>("op_286_end_0"), val = tensor<int32, [4]>([2, 40, 1, 2560])];
            tensor<bool, [4]> var_286_end_mask_0 = const()[name = tensor<string, []>("op_286_end_mask_0"), val = tensor<bool, [4]>([true, true, true, false])];
            tensor<fp16, [2, 40, 1, 512]> var_286_cast = slice_by_index(begin = var_286_begin_0, end = var_286_end_0, end_mask = var_286_end_mask_0, x = var_247_cast)[name = tensor<string, []>("op_286_cast")];
            tensor<int32, [4]> var_287_begin_0 = const()[name = tensor<string, []>("op_287_begin_0"), val = tensor<int32, [4]>([0, 0, 0, 2560])];
            tensor<int32, [4]> var_287_end_0 = const()[name = tensor<string, []>("op_287_end_0"), val = tensor<int32, [4]>([2, 40, 1, 3072])];
            tensor<bool, [4]> var_287_end_mask_0 = const()[name = tensor<string, []>("op_287_end_mask_0"), val = tensor<bool, [4]>([true, true, true, false])];
            tensor<fp16, [2, 40, 1, 512]> var_287_cast = slice_by_index(begin = var_287_begin_0, end = var_287_end_0, end_mask = var_287_end_mask_0, x = var_247_cast)[name = tensor<string, []>("op_287_cast")];
            tensor<int32, [4]> var_288_begin_0 = const()[name = tensor<string, []>("op_288_begin_0"), val = tensor<int32, [4]>([0, 0, 0, 3072])];
            tensor<int32, [4]> var_288_end_0 = const()[name = tensor<string, []>("op_288_end_0"), val = tensor<int32, [4]>([2, 40, 1, 3584])];
            tensor<bool, [4]> var_288_end_mask_0 = const()[name = tensor<string, []>("op_288_end_mask_0"), val = tensor<bool, [4]>([true, true, true, false])];
            tensor<fp16, [2, 40, 1, 512]> var_288_cast = slice_by_index(begin = var_288_begin_0, end = var_288_end_0, end_mask = var_288_end_mask_0, x = var_247_cast)[name = tensor<string, []>("op_288_cast")];
            tensor<int32, [4]> var_289_begin_0 = const()[name = tensor<string, []>("op_289_begin_0"), val = tensor<int32, [4]>([0, 0, 0, 3584])];
            tensor<int32, [4]> var_289_end_0 = const()[name = tensor<string, []>("op_289_end_0"), val = tensor<int32, [4]>([2, 40, 1, 4096])];
            tensor<bool, [4]> var_289_end_mask_0 = const()[name = tensor<string, []>("op_289_end_mask_0"), val = tensor<bool, [4]>([true, true, true, false])];
            tensor<fp16, [2, 40, 1, 512]> var_289_cast = slice_by_index(begin = var_289_begin_0, end = var_289_end_0, end_mask = var_289_end_mask_0, x = var_247_cast)[name = tensor<string, []>("op_289_cast")];
            tensor<int32, [4]> var_290_begin_0 = const()[name = tensor<string, []>("op_290_begin_0"), val = tensor<int32, [4]>([0, 0, 0, 0])];
            tensor<int32, [4]> var_290_end_0 = const()[name = tensor<string, []>("op_290_end_0"), val = tensor<int32, [4]>([2, 40, 1, 512])];
            tensor<bool, [4]> var_290_end_mask_0 = const()[name = tensor<string, []>("op_290_end_mask_0"), val = tensor<bool, [4]>([true, true, true, false])];
            tensor<fp16, [2, 40, 1, 512]> var_290_cast = slice_by_index(begin = var_290_begin_0, end = var_290_end_0, end_mask = var_290_end_mask_0, x = var_251_cast)[name = tensor<string, []>("op_290_cast")];
            tensor<int32, [4]> var_291_begin_0 = const()[name = tensor<string, []>("op_291_begin_0"), val = tensor<int32, [4]>([0, 0, 0, 512])];
            tensor<int32, [4]> var_291_end_0 = const()[name = tensor<string, []>("op_291_end_0"), val = tensor<int32, [4]>([2, 40, 1, 1024])];
            tensor<bool, [4]> var_291_end_mask_0 = const()[name = tensor<string, []>("op_291_end_mask_0"), val = tensor<bool, [4]>([true, true, true, false])];
            tensor<fp16, [2, 40, 1, 512]> var_291_cast = slice_by_index(begin = var_291_begin_0, end = var_291_end_0, end_mask = var_291_end_mask_0, x = var_251_cast)[name = tensor<string, []>("op_291_cast")];
            tensor<int32, [4]> var_292_begin_0 = const()[name = tensor<string, []>("op_292_begin_0"), val = tensor<int32, [4]>([0, 0, 0, 1024])];
            tensor<int32, [4]> var_292_end_0 = const()[name = tensor<string, []>("op_292_end_0"), val = tensor<int32, [4]>([2, 40, 1, 1536])];
            tensor<bool, [4]> var_292_end_mask_0 = const()[name = tensor<string, []>("op_292_end_mask_0"), val = tensor<bool, [4]>([true, true, true, false])];
            tensor<fp16, [2, 40, 1, 512]> var_292_cast = slice_by_index(begin = var_292_begin_0, end = var_292_end_0, end_mask = var_292_end_mask_0, x = var_251_cast)[name = tensor<string, []>("op_292_cast")];
            tensor<int32, [4]> var_293_begin_0 = const()[name = tensor<string, []>("op_293_begin_0"), val = tensor<int32, [4]>([0, 0, 0, 1536])];
            tensor<int32, [4]> var_293_end_0 = const()[name = tensor<string, []>("op_293_end_0"), val = tensor<int32, [4]>([2, 40, 1, 2048])];
            tensor<bool, [4]> var_293_end_mask_0 = const()[name = tensor<string, []>("op_293_end_mask_0"), val = tensor<bool, [4]>([true, true, true, false])];
            tensor<fp16, [2, 40, 1, 512]> var_293_cast = slice_by_index(begin = var_293_begin_0, end = var_293_end_0, end_mask = var_293_end_mask_0, x = var_251_cast)[name = tensor<string, []>("op_293_cast")];
            tensor<int32, [4]> var_294_begin_0 = const()[name = tensor<string, []>("op_294_begin_0"), val = tensor<int32, [4]>([0, 0, 0, 2048])];
            tensor<int32, [4]> var_294_end_0 = const()[name = tensor<string, []>("op_294_end_0"), val = tensor<int32, [4]>([2, 40, 1, 2560])];
            tensor<bool, [4]> var_294_end_mask_0 = const()[name = tensor<string, []>("op_294_end_mask_0"), val = tensor<bool, [4]>([true, true, true, false])];
            tensor<fp16, [2, 40, 1, 512]> var_294_cast = slice_by_index(begin = var_294_begin_0, end = var_294_end_0, end_mask = var_294_end_mask_0, x = var_251_cast)[name = tensor<string, []>("op_294_cast")];
            tensor<int32, [4]> var_295_begin_0 = const()[name = tensor<string, []>("op_295_begin_0"), val = tensor<int32, [4]>([0, 0, 0, 2560])];
            tensor<int32, [4]> var_295_end_0 = const()[name = tensor<string, []>("op_295_end_0"), val = tensor<int32, [4]>([2, 40, 1, 3072])];
            tensor<bool, [4]> var_295_end_mask_0 = const()[name = tensor<string, []>("op_295_end_mask_0"), val = tensor<bool, [4]>([true, true, true, false])];
            tensor<fp16, [2, 40, 1, 512]> var_295_cast = slice_by_index(begin = var_295_begin_0, end = var_295_end_0, end_mask = var_295_end_mask_0, x = var_251_cast)[name = tensor<string, []>("op_295_cast")];
            tensor<int32, [4]> var_296_begin_0 = const()[name = tensor<string, []>("op_296_begin_0"), val = tensor<int32, [4]>([0, 0, 0, 3072])];
            tensor<int32, [4]> var_296_end_0 = const()[name = tensor<string, []>("op_296_end_0"), val = tensor<int32, [4]>([2, 40, 1, 3584])];
            tensor<bool, [4]> var_296_end_mask_0 = const()[name = tensor<string, []>("op_296_end_mask_0"), val = tensor<bool, [4]>([true, true, true, false])];
            tensor<fp16, [2, 40, 1, 512]> var_296_cast = slice_by_index(begin = var_296_begin_0, end = var_296_end_0, end_mask = var_296_end_mask_0, x = var_251_cast)[name = tensor<string, []>("op_296_cast")];
            tensor<int32, [4]> var_297_begin_0 = const()[name = tensor<string, []>("op_297_begin_0"), val = tensor<int32, [4]>([0, 0, 0, 3584])];
            tensor<int32, [4]> var_297_end_0 = const()[name = tensor<string, []>("op_297_end_0"), val = tensor<int32, [4]>([2, 40, 1, 4096])];
            tensor<bool, [4]> var_297_end_mask_0 = const()[name = tensor<string, []>("op_297_end_mask_0"), val = tensor<bool, [4]>([true, true, true, false])];
            tensor<fp16, [2, 40, 1, 512]> var_297_cast = slice_by_index(begin = var_297_begin_0, end = var_297_end_0, end_mask = var_297_end_mask_0, x = var_251_cast)[name = tensor<string, []>("op_297_cast")];
            tensor<int32, [4]> var_298_begin_0 = const()[name = tensor<string, []>("op_298_begin_0"), val = tensor<int32, [4]>([0, 0, 0, 0])];
            tensor<int32, [4]> var_298_end_0 = const()[name = tensor<string, []>("op_298_end_0"), val = tensor<int32, [4]>([2, 40, 1, 512])];
            tensor<bool, [4]> var_298_end_mask_0 = const()[name = tensor<string, []>("op_298_end_mask_0"), val = tensor<bool, [4]>([true, true, true, false])];
            tensor<fp16, [2, 40, 1, 512]> var_298_cast = slice_by_index(begin = var_298_begin_0, end = var_298_end_0, end_mask = var_298_end_mask_0, x = var_255_cast)[name = tensor<string, []>("op_298_cast")];
            tensor<int32, [4]> var_299_begin_0 = const()[name = tensor<string, []>("op_299_begin_0"), val = tensor<int32, [4]>([0, 0, 0, 512])];
            tensor<int32, [4]> var_299_end_0 = const()[name = tensor<string, []>("op_299_end_0"), val = tensor<int32, [4]>([2, 40, 1, 1024])];
            tensor<bool, [4]> var_299_end_mask_0 = const()[name = tensor<string, []>("op_299_end_mask_0"), val = tensor<bool, [4]>([true, true, true, false])];
            tensor<fp16, [2, 40, 1, 512]> var_299_cast = slice_by_index(begin = var_299_begin_0, end = var_299_end_0, end_mask = var_299_end_mask_0, x = var_255_cast)[name = tensor<string, []>("op_299_cast")];
            tensor<int32, [4]> var_300_begin_0 = const()[name = tensor<string, []>("op_300_begin_0"), val = tensor<int32, [4]>([0, 0, 0, 1024])];
            tensor<int32, [4]> var_300_end_0 = const()[name = tensor<string, []>("op_300_end_0"), val = tensor<int32, [4]>([2, 40, 1, 1536])];
            tensor<bool, [4]> var_300_end_mask_0 = const()[name = tensor<string, []>("op_300_end_mask_0"), val = tensor<bool, [4]>([true, true, true, false])];
            tensor<fp16, [2, 40, 1, 512]> var_300_cast = slice_by_index(begin = var_300_begin_0, end = var_300_end_0, end_mask = var_300_end_mask_0, x = var_255_cast)[name = tensor<string, []>("op_300_cast")];
            tensor<int32, [4]> var_301_begin_0 = const()[name = tensor<string, []>("op_301_begin_0"), val = tensor<int32, [4]>([0, 0, 0, 1536])];
            tensor<int32, [4]> var_301_end_0 = const()[name = tensor<string, []>("op_301_end_0"), val = tensor<int32, [4]>([2, 40, 1, 2048])];
            tensor<bool, [4]> var_301_end_mask_0 = const()[name = tensor<string, []>("op_301_end_mask_0"), val = tensor<bool, [4]>([true, true, true, false])];
            tensor<fp16, [2, 40, 1, 512]> var_301_cast = slice_by_index(begin = var_301_begin_0, end = var_301_end_0, end_mask = var_301_end_mask_0, x = var_255_cast)[name = tensor<string, []>("op_301_cast")];
            tensor<int32, [4]> var_302_begin_0 = const()[name = tensor<string, []>("op_302_begin_0"), val = tensor<int32, [4]>([0, 0, 0, 2048])];
            tensor<int32, [4]> var_302_end_0 = const()[name = tensor<string, []>("op_302_end_0"), val = tensor<int32, [4]>([2, 40, 1, 2560])];
            tensor<bool, [4]> var_302_end_mask_0 = const()[name = tensor<string, []>("op_302_end_mask_0"), val = tensor<bool, [4]>([true, true, true, false])];
            tensor<fp16, [2, 40, 1, 512]> var_302_cast = slice_by_index(begin = var_302_begin_0, end = var_302_end_0, end_mask = var_302_end_mask_0, x = var_255_cast)[name = tensor<string, []>("op_302_cast")];
            tensor<int32, [4]> var_303_begin_0 = const()[name = tensor<string, []>("op_303_begin_0"), val = tensor<int32, [4]>([0, 0, 0, 2560])];
            tensor<int32, [4]> var_303_end_0 = const()[name = tensor<string, []>("op_303_end_0"), val = tensor<int32, [4]>([2, 40, 1, 3072])];
            tensor<bool, [4]> var_303_end_mask_0 = const()[name = tensor<string, []>("op_303_end_mask_0"), val = tensor<bool, [4]>([true, true, true, false])];
            tensor<fp16, [2, 40, 1, 512]> var_303_cast = slice_by_index(begin = var_303_begin_0, end = var_303_end_0, end_mask = var_303_end_mask_0, x = var_255_cast)[name = tensor<string, []>("op_303_cast")];
            tensor<int32, [4]> var_304_begin_0 = const()[name = tensor<string, []>("op_304_begin_0"), val = tensor<int32, [4]>([0, 0, 0, 3072])];
            tensor<int32, [4]> var_304_end_0 = const()[name = tensor<string, []>("op_304_end_0"), val = tensor<int32, [4]>([2, 40, 1, 3584])];
            tensor<bool, [4]> var_304_end_mask_0 = const()[name = tensor<string, []>("op_304_end_mask_0"), val = tensor<bool, [4]>([true, true, true, false])];
            tensor<fp16, [2, 40, 1, 512]> var_304_cast = slice_by_index(begin = var_304_begin_0, end = var_304_end_0, end_mask = var_304_end_mask_0, x = var_255_cast)[name = tensor<string, []>("op_304_cast")];
            tensor<int32, [4]> var_305_begin_0 = const()[name = tensor<string, []>("op_305_begin_0"), val = tensor<int32, [4]>([0, 0, 0, 3584])];
            tensor<int32, [4]> var_305_end_0 = const()[name = tensor<string, []>("op_305_end_0"), val = tensor<int32, [4]>([2, 40, 1, 4096])];
            tensor<bool, [4]> var_305_end_mask_0 = const()[name = tensor<string, []>("op_305_end_mask_0"), val = tensor<bool, [4]>([true, true, true, false])];
            tensor<fp16, [2, 40, 1, 512]> var_305_cast = slice_by_index(begin = var_305_begin_0, end = var_305_end_0, end_mask = var_305_end_mask_0, x = var_255_cast)[name = tensor<string, []>("op_305_cast")];
            tensor<int32, [4]> var_306_begin_0 = const()[name = tensor<string, []>("op_306_begin_0"), val = tensor<int32, [4]>([0, 0, 0, 0])];
            tensor<int32, [4]> var_306_end_0 = const()[name = tensor<string, []>("op_306_end_0"), val = tensor<int32, [4]>([2, 40, 1, 512])];
            tensor<bool, [4]> var_306_end_mask_0 = const()[name = tensor<string, []>("op_306_end_mask_0"), val = tensor<bool, [4]>([true, true, true, false])];
            tensor<fp16, [2, 40, 1, 512]> var_306_cast = slice_by_index(begin = var_306_begin_0, end = var_306_end_0, end_mask = var_306_end_mask_0, x = var_259_cast)[name = tensor<string, []>("op_306_cast")];
            tensor<int32, [4]> var_307_begin_0 = const()[name = tensor<string, []>("op_307_begin_0"), val = tensor<int32, [4]>([0, 0, 0, 512])];
            tensor<int32, [4]> var_307_end_0 = const()[name = tensor<string, []>("op_307_end_0"), val = tensor<int32, [4]>([2, 40, 1, 1024])];
            tensor<bool, [4]> var_307_end_mask_0 = const()[name = tensor<string, []>("op_307_end_mask_0"), val = tensor<bool, [4]>([true, true, true, false])];
            tensor<fp16, [2, 40, 1, 512]> var_307_cast = slice_by_index(begin = var_307_begin_0, end = var_307_end_0, end_mask = var_307_end_mask_0, x = var_259_cast)[name = tensor<string, []>("op_307_cast")];
            tensor<int32, [4]> var_308_begin_0 = const()[name = tensor<string, []>("op_308_begin_0"), val = tensor<int32, [4]>([0, 0, 0, 1024])];
            tensor<int32, [4]> var_308_end_0 = const()[name = tensor<string, []>("op_308_end_0"), val = tensor<int32, [4]>([2, 40, 1, 1536])];
            tensor<bool, [4]> var_308_end_mask_0 = const()[name = tensor<string, []>("op_308_end_mask_0"), val = tensor<bool, [4]>([true, true, true, false])];
            tensor<fp16, [2, 40, 1, 512]> var_308_cast = slice_by_index(begin = var_308_begin_0, end = var_308_end_0, end_mask = var_308_end_mask_0, x = var_259_cast)[name = tensor<string, []>("op_308_cast")];
            tensor<int32, [4]> var_309_begin_0 = const()[name = tensor<string, []>("op_309_begin_0"), val = tensor<int32, [4]>([0, 0, 0, 1536])];
            tensor<int32, [4]> var_309_end_0 = const()[name = tensor<string, []>("op_309_end_0"), val = tensor<int32, [4]>([2, 40, 1, 2048])];
            tensor<bool, [4]> var_309_end_mask_0 = const()[name = tensor<string, []>("op_309_end_mask_0"), val = tensor<bool, [4]>([true, true, true, false])];
            tensor<fp16, [2, 40, 1, 512]> var_309_cast = slice_by_index(begin = var_309_begin_0, end = var_309_end_0, end_mask = var_309_end_mask_0, x = var_259_cast)[name = tensor<string, []>("op_309_cast")];
            tensor<int32, [4]> var_310_begin_0 = const()[name = tensor<string, []>("op_310_begin_0"), val = tensor<int32, [4]>([0, 0, 0, 2048])];
            tensor<int32, [4]> var_310_end_0 = const()[name = tensor<string, []>("op_310_end_0"), val = tensor<int32, [4]>([2, 40, 1, 2560])];
            tensor<bool, [4]> var_310_end_mask_0 = const()[name = tensor<string, []>("op_310_end_mask_0"), val = tensor<bool, [4]>([true, true, true, false])];
            tensor<fp16, [2, 40, 1, 512]> var_310_cast = slice_by_index(begin = var_310_begin_0, end = var_310_end_0, end_mask = var_310_end_mask_0, x = var_259_cast)[name = tensor<string, []>("op_310_cast")];
            tensor<int32, [4]> var_311_begin_0 = const()[name = tensor<string, []>("op_311_begin_0"), val = tensor<int32, [4]>([0, 0, 0, 2560])];
            tensor<int32, [4]> var_311_end_0 = const()[name = tensor<string, []>("op_311_end_0"), val = tensor<int32, [4]>([2, 40, 1, 3072])];
            tensor<bool, [4]> var_311_end_mask_0 = const()[name = tensor<string, []>("op_311_end_mask_0"), val = tensor<bool, [4]>([true, true, true, false])];
            tensor<fp16, [2, 40, 1, 512]> var_311_cast = slice_by_index(begin = var_311_begin_0, end = var_311_end_0, end_mask = var_311_end_mask_0, x = var_259_cast)[name = tensor<string, []>("op_311_cast")];
            tensor<int32, [4]> var_312_begin_0 = const()[name = tensor<string, []>("op_312_begin_0"), val = tensor<int32, [4]>([0, 0, 0, 3072])];
            tensor<int32, [4]> var_312_end_0 = const()[name = tensor<string, []>("op_312_end_0"), val = tensor<int32, [4]>([2, 40, 1, 3584])];
            tensor<bool, [4]> var_312_end_mask_0 = const()[name = tensor<string, []>("op_312_end_mask_0"), val = tensor<bool, [4]>([true, true, true, false])];
            tensor<fp16, [2, 40, 1, 512]> var_312_cast = slice_by_index(begin = var_312_begin_0, end = var_312_end_0, end_mask = var_312_end_mask_0, x = var_259_cast)[name = tensor<string, []>("op_312_cast")];
            tensor<int32, [4]> var_313_begin_0 = const()[name = tensor<string, []>("op_313_begin_0"), val = tensor<int32, [4]>([0, 0, 0, 3584])];
            tensor<int32, [4]> var_313_end_0 = const()[name = tensor<string, []>("op_313_end_0"), val = tensor<int32, [4]>([2, 40, 1, 4096])];
            tensor<bool, [4]> var_313_end_mask_0 = const()[name = tensor<string, []>("op_313_end_mask_0"), val = tensor<bool, [4]>([true, true, true, false])];
            tensor<fp16, [2, 40, 1, 512]> var_313_cast = slice_by_index(begin = var_313_begin_0, end = var_313_end_0, end_mask = var_313_end_mask_0, x = var_259_cast)[name = tensor<string, []>("op_313_cast")];
            tensor<int32, [4]> var_314_begin_0 = const()[name = tensor<string, []>("op_314_begin_0"), val = tensor<int32, [4]>([0, 0, 0, 0])];
            tensor<int32, [4]> var_314_end_0 = const()[name = tensor<string, []>("op_314_end_0"), val = tensor<int32, [4]>([2, 40, 1, 512])];
            tensor<bool, [4]> var_314_end_mask_0 = const()[name = tensor<string, []>("op_314_end_mask_0"), val = tensor<bool, [4]>([true, true, true, false])];
            tensor<fp16, [2, 40, 1, 512]> var_314_cast = slice_by_index(begin = var_314_begin_0, end = var_314_end_0, end_mask = var_314_end_mask_0, x = var_263_cast)[name = tensor<string, []>("op_314_cast")];
            tensor<int32, [4]> var_315_begin_0 = const()[name = tensor<string, []>("op_315_begin_0"), val = tensor<int32, [4]>([0, 0, 0, 512])];
            tensor<int32, [4]> var_315_end_0 = const()[name = tensor<string, []>("op_315_end_0"), val = tensor<int32, [4]>([2, 40, 1, 1024])];
            tensor<bool, [4]> var_315_end_mask_0 = const()[name = tensor<string, []>("op_315_end_mask_0"), val = tensor<bool, [4]>([true, true, true, false])];
            tensor<fp16, [2, 40, 1, 512]> var_315_cast = slice_by_index(begin = var_315_begin_0, end = var_315_end_0, end_mask = var_315_end_mask_0, x = var_263_cast)[name = tensor<string, []>("op_315_cast")];
            tensor<int32, [4]> var_316_begin_0 = const()[name = tensor<string, []>("op_316_begin_0"), val = tensor<int32, [4]>([0, 0, 0, 1024])];
            tensor<int32, [4]> var_316_end_0 = const()[name = tensor<string, []>("op_316_end_0"), val = tensor<int32, [4]>([2, 40, 1, 1536])];
            tensor<bool, [4]> var_316_end_mask_0 = const()[name = tensor<string, []>("op_316_end_mask_0"), val = tensor<bool, [4]>([true, true, true, false])];
            tensor<fp16, [2, 40, 1, 512]> var_316_cast = slice_by_index(begin = var_316_begin_0, end = var_316_end_0, end_mask = var_316_end_mask_0, x = var_263_cast)[name = tensor<string, []>("op_316_cast")];
            tensor<int32, [4]> var_317_begin_0 = const()[name = tensor<string, []>("op_317_begin_0"), val = tensor<int32, [4]>([0, 0, 0, 1536])];
            tensor<int32, [4]> var_317_end_0 = const()[name = tensor<string, []>("op_317_end_0"), val = tensor<int32, [4]>([2, 40, 1, 2048])];
            tensor<bool, [4]> var_317_end_mask_0 = const()[name = tensor<string, []>("op_317_end_mask_0"), val = tensor<bool, [4]>([true, true, true, false])];
            tensor<fp16, [2, 40, 1, 512]> var_317_cast = slice_by_index(begin = var_317_begin_0, end = var_317_end_0, end_mask = var_317_end_mask_0, x = var_263_cast)[name = tensor<string, []>("op_317_cast")];
            tensor<int32, [4]> var_318_begin_0 = const()[name = tensor<string, []>("op_318_begin_0"), val = tensor<int32, [4]>([0, 0, 0, 2048])];
            tensor<int32, [4]> var_318_end_0 = const()[name = tensor<string, []>("op_318_end_0"), val = tensor<int32, [4]>([2, 40, 1, 2560])];
            tensor<bool, [4]> var_318_end_mask_0 = const()[name = tensor<string, []>("op_318_end_mask_0"), val = tensor<bool, [4]>([true, true, true, false])];
            tensor<fp16, [2, 40, 1, 512]> var_318_cast = slice_by_index(begin = var_318_begin_0, end = var_318_end_0, end_mask = var_318_end_mask_0, x = var_263_cast)[name = tensor<string, []>("op_318_cast")];
            tensor<int32, [4]> var_319_begin_0 = const()[name = tensor<string, []>("op_319_begin_0"), val = tensor<int32, [4]>([0, 0, 0, 2560])];
            tensor<int32, [4]> var_319_end_0 = const()[name = tensor<string, []>("op_319_end_0"), val = tensor<int32, [4]>([2, 40, 1, 3072])];
            tensor<bool, [4]> var_319_end_mask_0 = const()[name = tensor<string, []>("op_319_end_mask_0"), val = tensor<bool, [4]>([true, true, true, false])];
            tensor<fp16, [2, 40, 1, 512]> var_319_cast = slice_by_index(begin = var_319_begin_0, end = var_319_end_0, end_mask = var_319_end_mask_0, x = var_263_cast)[name = tensor<string, []>("op_319_cast")];
            tensor<int32, [4]> var_320_begin_0 = const()[name = tensor<string, []>("op_320_begin_0"), val = tensor<int32, [4]>([0, 0, 0, 3072])];
            tensor<int32, [4]> var_320_end_0 = const()[name = tensor<string, []>("op_320_end_0"), val = tensor<int32, [4]>([2, 40, 1, 3584])];
            tensor<bool, [4]> var_320_end_mask_0 = const()[name = tensor<string, []>("op_320_end_mask_0"), val = tensor<bool, [4]>([true, true, true, false])];
            tensor<fp16, [2, 40, 1, 512]> var_320_cast = slice_by_index(begin = var_320_begin_0, end = var_320_end_0, end_mask = var_320_end_mask_0, x = var_263_cast)[name = tensor<string, []>("op_320_cast")];
            tensor<int32, [4]> var_321_begin_0 = const()[name = tensor<string, []>("op_321_begin_0"), val = tensor<int32, [4]>([0, 0, 0, 3584])];
            tensor<int32, [4]> var_321_end_0 = const()[name = tensor<string, []>("op_321_end_0"), val = tensor<int32, [4]>([2, 40, 1, 4096])];
            tensor<bool, [4]> var_321_end_mask_0 = const()[name = tensor<string, []>("op_321_end_mask_0"), val = tensor<bool, [4]>([true, true, true, false])];
            tensor<fp16, [2, 40, 1, 512]> var_321_cast = slice_by_index(begin = var_321_begin_0, end = var_321_end_0, end_mask = var_321_end_mask_0, x = var_263_cast)[name = tensor<string, []>("op_321_cast")];
            tensor<int32, [4]> var_322_begin_0 = const()[name = tensor<string, []>("op_322_begin_0"), val = tensor<int32, [4]>([0, 0, 0, 0])];
            tensor<int32, [4]> var_322_end_0 = const()[name = tensor<string, []>("op_322_end_0"), val = tensor<int32, [4]>([2, 40, 1, 512])];
            tensor<bool, [4]> var_322_end_mask_0 = const()[name = tensor<string, []>("op_322_end_mask_0"), val = tensor<bool, [4]>([true, true, true, false])];
            tensor<fp16, [2, 40, 1, 512]> var_322_cast = slice_by_index(begin = var_322_begin_0, end = var_322_end_0, end_mask = var_322_end_mask_0, x = var_267_cast)[name = tensor<string, []>("op_322_cast")];
            tensor<int32, [4]> var_323_begin_0 = const()[name = tensor<string, []>("op_323_begin_0"), val = tensor<int32, [4]>([0, 0, 0, 512])];
            tensor<int32, [4]> var_323_end_0 = const()[name = tensor<string, []>("op_323_end_0"), val = tensor<int32, [4]>([2, 40, 1, 1024])];
            tensor<bool, [4]> var_323_end_mask_0 = const()[name = tensor<string, []>("op_323_end_mask_0"), val = tensor<bool, [4]>([true, true, true, false])];
            tensor<fp16, [2, 40, 1, 512]> var_323_cast = slice_by_index(begin = var_323_begin_0, end = var_323_end_0, end_mask = var_323_end_mask_0, x = var_267_cast)[name = tensor<string, []>("op_323_cast")];
            tensor<int32, [4]> var_324_begin_0 = const()[name = tensor<string, []>("op_324_begin_0"), val = tensor<int32, [4]>([0, 0, 0, 1024])];
            tensor<int32, [4]> var_324_end_0 = const()[name = tensor<string, []>("op_324_end_0"), val = tensor<int32, [4]>([2, 40, 1, 1536])];
            tensor<bool, [4]> var_324_end_mask_0 = const()[name = tensor<string, []>("op_324_end_mask_0"), val = tensor<bool, [4]>([true, true, true, false])];
            tensor<fp16, [2, 40, 1, 512]> var_324_cast = slice_by_index(begin = var_324_begin_0, end = var_324_end_0, end_mask = var_324_end_mask_0, x = var_267_cast)[name = tensor<string, []>("op_324_cast")];
            tensor<int32, [4]> var_325_begin_0 = const()[name = tensor<string, []>("op_325_begin_0"), val = tensor<int32, [4]>([0, 0, 0, 1536])];
            tensor<int32, [4]> var_325_end_0 = const()[name = tensor<string, []>("op_325_end_0"), val = tensor<int32, [4]>([2, 40, 1, 2048])];
            tensor<bool, [4]> var_325_end_mask_0 = const()[name = tensor<string, []>("op_325_end_mask_0"), val = tensor<bool, [4]>([true, true, true, false])];
            tensor<fp16, [2, 40, 1, 512]> var_325_cast = slice_by_index(begin = var_325_begin_0, end = var_325_end_0, end_mask = var_325_end_mask_0, x = var_267_cast)[name = tensor<string, []>("op_325_cast")];
            tensor<int32, [4]> var_326_begin_0 = const()[name = tensor<string, []>("op_326_begin_0"), val = tensor<int32, [4]>([0, 0, 0, 2048])];
            tensor<int32, [4]> var_326_end_0 = const()[name = tensor<string, []>("op_326_end_0"), val = tensor<int32, [4]>([2, 40, 1, 2560])];
            tensor<bool, [4]> var_326_end_mask_0 = const()[name = tensor<string, []>("op_326_end_mask_0"), val = tensor<bool, [4]>([true, true, true, false])];
            tensor<fp16, [2, 40, 1, 512]> var_326_cast = slice_by_index(begin = var_326_begin_0, end = var_326_end_0, end_mask = var_326_end_mask_0, x = var_267_cast)[name = tensor<string, []>("op_326_cast")];
            tensor<int32, [4]> var_327_begin_0 = const()[name = tensor<string, []>("op_327_begin_0"), val = tensor<int32, [4]>([0, 0, 0, 2560])];
            tensor<int32, [4]> var_327_end_0 = const()[name = tensor<string, []>("op_327_end_0"), val = tensor<int32, [4]>([2, 40, 1, 3072])];
            tensor<bool, [4]> var_327_end_mask_0 = const()[name = tensor<string, []>("op_327_end_mask_0"), val = tensor<bool, [4]>([true, true, true, false])];
            tensor<fp16, [2, 40, 1, 512]> var_327_cast = slice_by_index(begin = var_327_begin_0, end = var_327_end_0, end_mask = var_327_end_mask_0, x = var_267_cast)[name = tensor<string, []>("op_327_cast")];
            tensor<int32, [4]> var_328_begin_0 = const()[name = tensor<string, []>("op_328_begin_0"), val = tensor<int32, [4]>([0, 0, 0, 3072])];
            tensor<int32, [4]> var_328_end_0 = const()[name = tensor<string, []>("op_328_end_0"), val = tensor<int32, [4]>([2, 40, 1, 3584])];
            tensor<bool, [4]> var_328_end_mask_0 = const()[name = tensor<string, []>("op_328_end_mask_0"), val = tensor<bool, [4]>([true, true, true, false])];
            tensor<fp16, [2, 40, 1, 512]> var_328_cast = slice_by_index(begin = var_328_begin_0, end = var_328_end_0, end_mask = var_328_end_mask_0, x = var_267_cast)[name = tensor<string, []>("op_328_cast")];
            tensor<int32, [4]> var_329_begin_0 = const()[name = tensor<string, []>("op_329_begin_0"), val = tensor<int32, [4]>([0, 0, 0, 3584])];
            tensor<int32, [4]> var_329_end_0 = const()[name = tensor<string, []>("op_329_end_0"), val = tensor<int32, [4]>([2, 40, 1, 4096])];
            tensor<bool, [4]> var_329_end_mask_0 = const()[name = tensor<string, []>("op_329_end_mask_0"), val = tensor<bool, [4]>([true, true, true, false])];
            tensor<fp16, [2, 40, 1, 512]> var_329_cast = slice_by_index(begin = var_329_begin_0, end = var_329_end_0, end_mask = var_329_end_mask_0, x = var_267_cast)[name = tensor<string, []>("op_329_cast")];
            tensor<int32, [4]> var_330_begin_0 = const()[name = tensor<string, []>("op_330_begin_0"), val = tensor<int32, [4]>([0, 0, 0, 0])];
            tensor<int32, [4]> var_330_end_0 = const()[name = tensor<string, []>("op_330_end_0"), val = tensor<int32, [4]>([2, 40, 1, 512])];
            tensor<bool, [4]> var_330_end_mask_0 = const()[name = tensor<string, []>("op_330_end_mask_0"), val = tensor<bool, [4]>([true, true, true, false])];
            tensor<fp16, [2, 40, 1, 512]> var_330_cast = slice_by_index(begin = var_330_begin_0, end = var_330_end_0, end_mask = var_330_end_mask_0, x = var_271_cast)[name = tensor<string, []>("op_330_cast")];
            tensor<int32, [4]> var_331_begin_0 = const()[name = tensor<string, []>("op_331_begin_0"), val = tensor<int32, [4]>([0, 0, 0, 512])];
            tensor<int32, [4]> var_331_end_0 = const()[name = tensor<string, []>("op_331_end_0"), val = tensor<int32, [4]>([2, 40, 1, 1024])];
            tensor<bool, [4]> var_331_end_mask_0 = const()[name = tensor<string, []>("op_331_end_mask_0"), val = tensor<bool, [4]>([true, true, true, false])];
            tensor<fp16, [2, 40, 1, 512]> var_331_cast = slice_by_index(begin = var_331_begin_0, end = var_331_end_0, end_mask = var_331_end_mask_0, x = var_271_cast)[name = tensor<string, []>("op_331_cast")];
            tensor<int32, [4]> var_332_begin_0 = const()[name = tensor<string, []>("op_332_begin_0"), val = tensor<int32, [4]>([0, 0, 0, 1024])];
            tensor<int32, [4]> var_332_end_0 = const()[name = tensor<string, []>("op_332_end_0"), val = tensor<int32, [4]>([2, 40, 1, 1536])];
            tensor<bool, [4]> var_332_end_mask_0 = const()[name = tensor<string, []>("op_332_end_mask_0"), val = tensor<bool, [4]>([true, true, true, false])];
            tensor<fp16, [2, 40, 1, 512]> var_332_cast = slice_by_index(begin = var_332_begin_0, end = var_332_end_0, end_mask = var_332_end_mask_0, x = var_271_cast)[name = tensor<string, []>("op_332_cast")];
            tensor<int32, [4]> var_333_begin_0 = const()[name = tensor<string, []>("op_333_begin_0"), val = tensor<int32, [4]>([0, 0, 0, 1536])];
            tensor<int32, [4]> var_333_end_0 = const()[name = tensor<string, []>("op_333_end_0"), val = tensor<int32, [4]>([2, 40, 1, 2048])];
            tensor<bool, [4]> var_333_end_mask_0 = const()[name = tensor<string, []>("op_333_end_mask_0"), val = tensor<bool, [4]>([true, true, true, false])];
            tensor<fp16, [2, 40, 1, 512]> var_333_cast = slice_by_index(begin = var_333_begin_0, end = var_333_end_0, end_mask = var_333_end_mask_0, x = var_271_cast)[name = tensor<string, []>("op_333_cast")];
            tensor<int32, [4]> var_334_begin_0 = const()[name = tensor<string, []>("op_334_begin_0"), val = tensor<int32, [4]>([0, 0, 0, 2048])];
            tensor<int32, [4]> var_334_end_0 = const()[name = tensor<string, []>("op_334_end_0"), val = tensor<int32, [4]>([2, 40, 1, 2560])];
            tensor<bool, [4]> var_334_end_mask_0 = const()[name = tensor<string, []>("op_334_end_mask_0"), val = tensor<bool, [4]>([true, true, true, false])];
            tensor<fp16, [2, 40, 1, 512]> var_334_cast = slice_by_index(begin = var_334_begin_0, end = var_334_end_0, end_mask = var_334_end_mask_0, x = var_271_cast)[name = tensor<string, []>("op_334_cast")];
            tensor<int32, [4]> var_335_begin_0 = const()[name = tensor<string, []>("op_335_begin_0"), val = tensor<int32, [4]>([0, 0, 0, 2560])];
            tensor<int32, [4]> var_335_end_0 = const()[name = tensor<string, []>("op_335_end_0"), val = tensor<int32, [4]>([2, 40, 1, 3072])];
            tensor<bool, [4]> var_335_end_mask_0 = const()[name = tensor<string, []>("op_335_end_mask_0"), val = tensor<bool, [4]>([true, true, true, false])];
            tensor<fp16, [2, 40, 1, 512]> var_335_cast = slice_by_index(begin = var_335_begin_0, end = var_335_end_0, end_mask = var_335_end_mask_0, x = var_271_cast)[name = tensor<string, []>("op_335_cast")];
            tensor<int32, [4]> var_336_begin_0 = const()[name = tensor<string, []>("op_336_begin_0"), val = tensor<int32, [4]>([0, 0, 0, 3072])];
            tensor<int32, [4]> var_336_end_0 = const()[name = tensor<string, []>("op_336_end_0"), val = tensor<int32, [4]>([2, 40, 1, 3584])];
            tensor<bool, [4]> var_336_end_mask_0 = const()[name = tensor<string, []>("op_336_end_mask_0"), val = tensor<bool, [4]>([true, true, true, false])];
            tensor<fp16, [2, 40, 1, 512]> var_336_cast = slice_by_index(begin = var_336_begin_0, end = var_336_end_0, end_mask = var_336_end_mask_0, x = var_271_cast)[name = tensor<string, []>("op_336_cast")];
            tensor<int32, [4]> var_337_begin_0 = const()[name = tensor<string, []>("op_337_begin_0"), val = tensor<int32, [4]>([0, 0, 0, 3584])];
            tensor<int32, [4]> var_337_end_0 = const()[name = tensor<string, []>("op_337_end_0"), val = tensor<int32, [4]>([2, 40, 1, 4096])];
            tensor<bool, [4]> var_337_end_mask_0 = const()[name = tensor<string, []>("op_337_end_mask_0"), val = tensor<bool, [4]>([true, true, true, false])];
            tensor<fp16, [2, 40, 1, 512]> var_337_cast = slice_by_index(begin = var_337_begin_0, end = var_337_end_0, end_mask = var_337_end_mask_0, x = var_271_cast)[name = tensor<string, []>("op_337_cast")];
            tensor<int32, [4]> k_3_perm_0 = const()[name = tensor<string, []>("k_3_perm_0"), val = tensor<int32, [4]>([0, 3, 2, 1])];
            tensor<int32, [4]> var_342_begin_0 = const()[name = tensor<string, []>("op_342_begin_0"), val = tensor<int32, [4]>([0, 0, 0, 0])];
            tensor<int32, [4]> var_342_end_0 = const()[name = tensor<string, []>("op_342_end_0"), val = tensor<int32, [4]>([2, 4096, 1, 40])];
            tensor<bool, [4]> var_342_end_mask_0 = const()[name = tensor<string, []>("op_342_end_mask_0"), val = tensor<bool, [4]>([true, true, true, false])];
            tensor<fp16, [2, 4096, 1, 320]> transpose_31 = transpose(perm = k_3_perm_0, x = k_1_cast)[name = tensor<string, []>("transpose_31")];
            tensor<fp16, [2, 4096, 1, 40]> var_342_cast = slice_by_index(begin = var_342_begin_0, end = var_342_end_0, end_mask = var_342_end_mask_0, x = transpose_31)[name = tensor<string, []>("op_342_cast")];
            tensor<int32, [4]> var_346_begin_0 = const()[name = tensor<string, []>("op_346_begin_0"), val = tensor<int32, [4]>([0, 0, 0, 40])];
            tensor<int32, [4]> var_346_end_0 = const()[name = tensor<string, []>("op_346_end_0"), val = tensor<int32, [4]>([2, 4096, 1, 80])];
            tensor<bool, [4]> var_346_end_mask_0 = const()[name = tensor<string, []>("op_346_end_mask_0"), val = tensor<bool, [4]>([true, true, true, false])];
            tensor<fp16, [2, 4096, 1, 40]> var_346_cast = slice_by_index(begin = var_346_begin_0, end = var_346_end_0, end_mask = var_346_end_mask_0, x = transpose_31)[name = tensor<string, []>("op_346_cast")];
            tensor<int32, [4]> var_350_begin_0 = const()[name = tensor<string, []>("op_350_begin_0"), val = tensor<int32, [4]>([0, 0, 0, 80])];
            tensor<int32, [4]> var_350_end_0 = const()[name = tensor<string, []>("op_350_end_0"), val = tensor<int32, [4]>([2, 4096, 1, 120])];
            tensor<bool, [4]> var_350_end_mask_0 = const()[name = tensor<string, []>("op_350_end_mask_0"), val = tensor<bool, [4]>([true, true, true, false])];
            tensor<fp16, [2, 4096, 1, 40]> var_350_cast = slice_by_index(begin = var_350_begin_0, end = var_350_end_0, end_mask = var_350_end_mask_0, x = transpose_31)[name = tensor<string, []>("op_350_cast")];
            tensor<int32, [4]> var_354_begin_0 = const()[name = tensor<string, []>("op_354_begin_0"), val = tensor<int32, [4]>([0, 0, 0, 120])];
            tensor<int32, [4]> var_354_end_0 = const()[name = tensor<string, []>("op_354_end_0"), val = tensor<int32, [4]>([2, 4096, 1, 160])];
            tensor<bool, [4]> var_354_end_mask_0 = const()[name = tensor<string, []>("op_354_end_mask_0"), val = tensor<bool, [4]>([true, true, true, false])];
            tensor<fp16, [2, 4096, 1, 40]> var_354_cast = slice_by_index(begin = var_354_begin_0, end = var_354_end_0, end_mask = var_354_end_mask_0, x = transpose_31)[name = tensor<string, []>("op_354_cast")];
            tensor<int32, [4]> var_358_begin_0 = const()[name = tensor<string, []>("op_358_begin_0"), val = tensor<int32, [4]>([0, 0, 0, 160])];
            tensor<int32, [4]> var_358_end_0 = const()[name = tensor<string, []>("op_358_end_0"), val = tensor<int32, [4]>([2, 4096, 1, 200])];
            tensor<bool, [4]> var_358_end_mask_0 = const()[name = tensor<string, []>("op_358_end_mask_0"), val = tensor<bool, [4]>([true, true, true, false])];
            tensor<fp16, [2, 4096, 1, 40]> var_358_cast = slice_by_index(begin = var_358_begin_0, end = var_358_end_0, end_mask = var_358_end_mask_0, x = transpose_31)[name = tensor<string, []>("op_358_cast")];
            tensor<int32, [4]> var_362_begin_0 = const()[name = tensor<string, []>("op_362_begin_0"), val = tensor<int32, [4]>([0, 0, 0, 200])];
            tensor<int32, [4]> var_362_end_0 = const()[name = tensor<string, []>("op_362_end_0"), val = tensor<int32, [4]>([2, 4096, 1, 240])];
            tensor<bool, [4]> var_362_end_mask_0 = const()[name = tensor<string, []>("op_362_end_mask_0"), val = tensor<bool, [4]>([true, true, true, false])];
            tensor<fp16, [2, 4096, 1, 40]> var_362_cast = slice_by_index(begin = var_362_begin_0, end = var_362_end_0, end_mask = var_362_end_mask_0, x = transpose_31)[name = tensor<string, []>("op_362_cast")];
            tensor<int32, [4]> var_366_begin_0 = const()[name = tensor<string, []>("op_366_begin_0"), val = tensor<int32, [4]>([0, 0, 0, 240])];
            tensor<int32, [4]> var_366_end_0 = const()[name = tensor<string, []>("op_366_end_0"), val = tensor<int32, [4]>([2, 4096, 1, 280])];
            tensor<bool, [4]> var_366_end_mask_0 = const()[name = tensor<string, []>("op_366_end_mask_0"), val = tensor<bool, [4]>([true, true, true, false])];
            tensor<fp16, [2, 4096, 1, 40]> var_366_cast = slice_by_index(begin = var_366_begin_0, end = var_366_end_0, end_mask = var_366_end_mask_0, x = transpose_31)[name = tensor<string, []>("op_366_cast")];
            tensor<int32, [4]> var_370_begin_0 = const()[name = tensor<string, []>("op_370_begin_0"), val = tensor<int32, [4]>([0, 0, 0, 280])];
            tensor<int32, [4]> var_370_end_0 = const()[name = tensor<string, []>("op_370_end_0"), val = tensor<int32, [4]>([2, 4096, 1, 320])];
            tensor<bool, [4]> var_370_end_mask_0 = const()[name = tensor<string, []>("op_370_end_mask_0"), val = tensor<bool, [4]>([true, true, true, false])];
            tensor<fp16, [2, 4096, 1, 40]> var_370_cast = slice_by_index(begin = var_370_begin_0, end = var_370_end_0, end_mask = var_370_end_mask_0, x = transpose_31)[name = tensor<string, []>("op_370_cast")];
            tensor<int32, [4]> var_372_begin_0 = const()[name = tensor<string, []>("op_372_begin_0"), val = tensor<int32, [4]>([0, 0, 0, 0])];
            tensor<int32, [4]> var_372_end_0 = const()[name = tensor<string, []>("op_372_end_0"), val = tensor<int32, [4]>([2, 40, 1, 4096])];
            tensor<bool, [4]> var_372_end_mask_0 = const()[name = tensor<string, []>("op_372_end_mask_0"), val = tensor<bool, [4]>([true, false, true, true])];
            tensor<fp16, [2, 40, 1, 4096]> var_372_cast = slice_by_index(begin = var_372_begin_0, end = var_372_end_0, end_mask = var_372_end_mask_0, x = v_1_cast)[name = tensor<string, []>("op_372_cast")];
            tensor<int32, [4]> var_376_begin_0 = const()[name = tensor<string, []>("op_376_begin_0"), val = tensor<int32, [4]>([0, 40, 0, 0])];
            tensor<int32, [4]> var_376_end_0 = const()[name = tensor<string, []>("op_376_end_0"), val = tensor<int32, [4]>([2, 80, 1, 4096])];
            tensor<bool, [4]> var_376_end_mask_0 = const()[name = tensor<string, []>("op_376_end_mask_0"), val = tensor<bool, [4]>([true, false, true, true])];
            tensor<fp16, [2, 40, 1, 4096]> var_376_cast = slice_by_index(begin = var_376_begin_0, end = var_376_end_0, end_mask = var_376_end_mask_0, x = v_1_cast)[name = tensor<string, []>("op_376_cast")];
            tensor<int32, [4]> var_380_begin_0 = const()[name = tensor<string, []>("op_380_begin_0"), val = tensor<int32, [4]>([0, 80, 0, 0])];
            tensor<int32, [4]> var_380_end_0 = const()[name = tensor<string, []>("op_380_end_0"), val = tensor<int32, [4]>([2, 120, 1, 4096])];
            tensor<bool, [4]> var_380_end_mask_0 = const()[name = tensor<string, []>("op_380_end_mask_0"), val = tensor<bool, [4]>([true, false, true, true])];
            tensor<fp16, [2, 40, 1, 4096]> var_380_cast = slice_by_index(begin = var_380_begin_0, end = var_380_end_0, end_mask = var_380_end_mask_0, x = v_1_cast)[name = tensor<string, []>("op_380_cast")];
            tensor<int32, [4]> var_384_begin_0 = const()[name = tensor<string, []>("op_384_begin_0"), val = tensor<int32, [4]>([0, 120, 0, 0])];
            tensor<int32, [4]> var_384_end_0 = const()[name = tensor<string, []>("op_384_end_0"), val = tensor<int32, [4]>([2, 160, 1, 4096])];
            tensor<bool, [4]> var_384_end_mask_0 = const()[name = tensor<string, []>("op_384_end_mask_0"), val = tensor<bool, [4]>([true, false, true, true])];
            tensor<fp16, [2, 40, 1, 4096]> var_384_cast = slice_by_index(begin = var_384_begin_0, end = var_384_end_0, end_mask = var_384_end_mask_0, x = v_1_cast)[name = tensor<string, []>("op_384_cast")];
            tensor<int32, [4]> var_388_begin_0 = const()[name = tensor<string, []>("op_388_begin_0"), val = tensor<int32, [4]>([0, 160, 0, 0])];
            tensor<int32, [4]> var_388_end_0 = const()[name = tensor<string, []>("op_388_end_0"), val = tensor<int32, [4]>([2, 200, 1, 4096])];
            tensor<bool, [4]> var_388_end_mask_0 = const()[name = tensor<string, []>("op_388_end_mask_0"), val = tensor<bool, [4]>([true, false, true, true])];
            tensor<fp16, [2, 40, 1, 4096]> var_388_cast = slice_by_index(begin = var_388_begin_0, end = var_388_end_0, end_mask = var_388_end_mask_0, x = v_1_cast)[name = tensor<string, []>("op_388_cast")];
            tensor<int32, [4]> var_392_begin_0 = const()[name = tensor<string, []>("op_392_begin_0"), val = tensor<int32, [4]>([0, 200, 0, 0])];
            tensor<int32, [4]> var_392_end_0 = const()[name = tensor<string, []>("op_392_end_0"), val = tensor<int32, [4]>([2, 240, 1, 4096])];
            tensor<bool, [4]> var_392_end_mask_0 = const()[name = tensor<string, []>("op_392_end_mask_0"), val = tensor<bool, [4]>([true, false, true, true])];
            tensor<fp16, [2, 40, 1, 4096]> var_392_cast = slice_by_index(begin = var_392_begin_0, end = var_392_end_0, end_mask = var_392_end_mask_0, x = v_1_cast)[name = tensor<string, []>("op_392_cast")];
            tensor<int32, [4]> var_396_begin_0 = const()[name = tensor<string, []>("op_396_begin_0"), val = tensor<int32, [4]>([0, 240, 0, 0])];
            tensor<int32, [4]> var_396_end_0 = const()[name = tensor<string, []>("op_396_end_0"), val = tensor<int32, [4]>([2, 280, 1, 4096])];
            tensor<bool, [4]> var_396_end_mask_0 = const()[name = tensor<string, []>("op_396_end_mask_0"), val = tensor<bool, [4]>([true, false, true, true])];
            tensor<fp16, [2, 40, 1, 4096]> var_396_cast = slice_by_index(begin = var_396_begin_0, end = var_396_end_0, end_mask = var_396_end_mask_0, x = v_1_cast)[name = tensor<string, []>("op_396_cast")];
            tensor<int32, [4]> var_400_begin_0 = const()[name = tensor<string, []>("op_400_begin_0"), val = tensor<int32, [4]>([0, 280, 0, 0])];
            tensor<int32, [4]> var_400_end_0 = const()[name = tensor<string, []>("op_400_end_0"), val = tensor<int32, [4]>([2, 320, 1, 4096])];
            tensor<bool, [4]> var_400_end_mask_0 = const()[name = tensor<string, []>("op_400_end_mask_0"), val = tensor<bool, [4]>([true, false, true, true])];
            tensor<fp16, [2, 40, 1, 4096]> var_400_cast = slice_by_index(begin = var_400_begin_0, end = var_400_end_0, end_mask = var_400_end_mask_0, x = v_1_cast)[name = tensor<string, []>("op_400_cast")];
            tensor<string, []> var_404_equation_0 = const()[name = tensor<string, []>("op_404_equation_0"), val = tensor<string, []>("bkhc,bchq->bkhq")];
            tensor<fp16, [2, 4096, 1, 512]> var_404_cast = einsum(equation = var_404_equation_0, values = (var_342_cast, var_274_cast))[name = tensor<string, []>("op_404_cast")];
            tensor<fp16, []> var_405_to_fp16 = const()[name = tensor<string, []>("op_405_to_fp16"), val = tensor<fp16, []>(0x1.43cp-3)];
            tensor<fp16, [2, 4096, 1, 512]> aw_chunk_1_cast = mul(x = var_404_cast, y = var_405_to_fp16)[name = tensor<string, []>("aw_chunk_1_cast")];
            tensor<string, []> var_408_equation_0 = const()[name = tensor<string, []>("op_408_equation_0"), val = tensor<string, []>("bkhc,bchq->bkhq")];
            tensor<fp16, [2, 4096, 1, 512]> var_408_cast = einsum(equation = var_408_equation_0, values = (var_342_cast, var_275_cast))[name = tensor<string, []>("op_408_cast")];
            tensor<fp16, []> var_409_to_fp16 = const()[name = tensor<string, []>("op_409_to_fp16"), val = tensor<fp16, []>(0x1.43cp-3)];
            tensor<fp16, [2, 4096, 1, 512]> aw_chunk_3_cast = mul(x = var_408_cast, y = var_409_to_fp16)[name = tensor<string, []>("aw_chunk_3_cast")];
            tensor<string, []> var_412_equation_0 = const()[name = tensor<string, []>("op_412_equation_0"), val = tensor<string, []>("bkhc,bchq->bkhq")];
            tensor<fp16, [2, 4096, 1, 512]> var_412_cast = einsum(equation = var_412_equation_0, values = (var_342_cast, var_276_cast))[name = tensor<string, []>("op_412_cast")];
            tensor<fp16, []> var_413_to_fp16 = const()[name = tensor<string, []>("op_413_to_fp16"), val = tensor<fp16, []>(0x1.43cp-3)];
            tensor<fp16, [2, 4096, 1, 512]> aw_chunk_5_cast = mul(x = var_412_cast, y = var_413_to_fp16)[name = tensor<string, []>("aw_chunk_5_cast")];
            tensor<string, []> var_416_equation_0 = const()[name = tensor<string, []>("op_416_equation_0"), val = tensor<string, []>("bkhc,bchq->bkhq")];
            tensor<fp16, [2, 4096, 1, 512]> var_416_cast = einsum(equation = var_416_equation_0, values = (var_342_cast, var_277_cast))[name = tensor<string, []>("op_416_cast")];
            tensor<fp16, []> var_417_to_fp16 = const()[name = tensor<string, []>("op_417_to_fp16"), val = tensor<fp16, []>(0x1.43cp-3)];
            tensor<fp16, [2, 4096, 1, 512]> aw_chunk_7_cast = mul(x = var_416_cast, y = var_417_to_fp16)[name = tensor<string, []>("aw_chunk_7_cast")];
            tensor<string, []> var_420_equation_0 = const()[name = tensor<string, []>("op_420_equation_0"), val = tensor<string, []>("bkhc,bchq->bkhq")];
            tensor<fp16, [2, 4096, 1, 512]> var_420_cast = einsum(equation = var_420_equation_0, values = (var_342_cast, var_278_cast))[name = tensor<string, []>("op_420_cast")];
            tensor<fp16, []> var_421_to_fp16 = const()[name = tensor<string, []>("op_421_to_fp16"), val = tensor<fp16, []>(0x1.43cp-3)];
            tensor<fp16, [2, 4096, 1, 512]> aw_chunk_9_cast = mul(x = var_420_cast, y = var_421_to_fp16)[name = tensor<string, []>("aw_chunk_9_cast")];
            tensor<string, []> var_424_equation_0 = const()[name = tensor<string, []>("op_424_equation_0"), val = tensor<string, []>("bkhc,bchq->bkhq")];
            tensor<fp16, [2, 4096, 1, 512]> var_424_cast = einsum(equation = var_424_equation_0, values = (var_342_cast, var_279_cast))[name = tensor<string, []>("op_424_cast")];
            tensor<fp16, []> var_425_to_fp16 = const()[name = tensor<string, []>("op_425_to_fp16"), val = tensor<fp16, []>(0x1.43cp-3)];
            tensor<fp16, [2, 4096, 1, 512]> aw_chunk_11_cast = mul(x = var_424_cast, y = var_425_to_fp16)[name = tensor<string, []>("aw_chunk_11_cast")];
            tensor<string, []> var_428_equation_0 = const()[name = tensor<string, []>("op_428_equation_0"), val = tensor<string, []>("bkhc,bchq->bkhq")];
            tensor<fp16, [2, 4096, 1, 512]> var_428_cast = einsum(equation = var_428_equation_0, values = (var_342_cast, var_280_cast))[name = tensor<string, []>("op_428_cast")];
            tensor<fp16, []> var_429_to_fp16 = const()[name = tensor<string, []>("op_429_to_fp16"), val = tensor<fp16, []>(0x1.43cp-3)];
            tensor<fp16, [2, 4096, 1, 512]> aw_chunk_13_cast = mul(x = var_428_cast, y = var_429_to_fp16)[name = tensor<string, []>("aw_chunk_13_cast")];
            tensor<string, []> var_432_equation_0 = const()[name = tensor<string, []>("op_432_equation_0"), val = tensor<string, []>("bkhc,bchq->bkhq")];
            tensor<fp16, [2, 4096, 1, 512]> var_432_cast = einsum(equation = var_432_equation_0, values = (var_342_cast, var_281_cast))[name = tensor<string, []>("op_432_cast")];
            tensor<fp16, []> var_433_to_fp16 = const()[name = tensor<string, []>("op_433_to_fp16"), val = tensor<fp16, []>(0x1.43cp-3)];
            tensor<fp16, [2, 4096, 1, 512]> aw_chunk_15_cast = mul(x = var_432_cast, y = var_433_to_fp16)[name = tensor<string, []>("aw_chunk_15_cast")];
            tensor<string, []> var_436_equation_0 = const()[name = tensor<string, []>("op_436_equation_0"), val = tensor<string, []>("bkhc,bchq->bkhq")];
            tensor<fp16, [2, 4096, 1, 512]> var_436_cast = einsum(equation = var_436_equation_0, values = (var_346_cast, var_282_cast))[name = tensor<string, []>("op_436_cast")];
            tensor<fp16, []> var_437_to_fp16 = const()[name = tensor<string, []>("op_437_to_fp16"), val = tensor<fp16, []>(0x1.43cp-3)];
            tensor<fp16, [2, 4096, 1, 512]> aw_chunk_17_cast = mul(x = var_436_cast, y = var_437_to_fp16)[name = tensor<string, []>("aw_chunk_17_cast")];
            tensor<string, []> var_440_equation_0 = const()[name = tensor<string, []>("op_440_equation_0"), val = tensor<string, []>("bkhc,bchq->bkhq")];
            tensor<fp16, [2, 4096, 1, 512]> var_440_cast = einsum(equation = var_440_equation_0, values = (var_346_cast, var_283_cast))[name = tensor<string, []>("op_440_cast")];
            tensor<fp16, []> var_441_to_fp16 = const()[name = tensor<string, []>("op_441_to_fp16"), val = tensor<fp16, []>(0x1.43cp-3)];
            tensor<fp16, [2, 4096, 1, 512]> aw_chunk_19_cast = mul(x = var_440_cast, y = var_441_to_fp16)[name = tensor<string, []>("aw_chunk_19_cast")];
            tensor<string, []> var_444_equation_0 = const()[name = tensor<string, []>("op_444_equation_0"), val = tensor<string, []>("bkhc,bchq->bkhq")];
            tensor<fp16, [2, 4096, 1, 512]> var_444_cast = einsum(equation = var_444_equation_0, values = (var_346_cast, var_284_cast))[name = tensor<string, []>("op_444_cast")];
            tensor<fp16, []> var_445_to_fp16 = const()[name = tensor<string, []>("op_445_to_fp16"), val = tensor<fp16, []>(0x1.43cp-3)];
            tensor<fp16, [2, 4096, 1, 512]> aw_chunk_21_cast = mul(x = var_444_cast, y = var_445_to_fp16)[name = tensor<string, []>("aw_chunk_21_cast")];
            tensor<string, []> var_448_equation_0 = const()[name = tensor<string, []>("op_448_equation_0"), val = tensor<string, []>("bkhc,bchq->bkhq")];
            tensor<fp16, [2, 4096, 1, 512]> var_448_cast = einsum(equation = var_448_equation_0, values = (var_346_cast, var_285_cast))[name = tensor<string, []>("op_448_cast")];
            tensor<fp16, []> var_449_to_fp16 = const()[name = tensor<string, []>("op_449_to_fp16"), val = tensor<fp16, []>(0x1.43cp-3)];
            tensor<fp16, [2, 4096, 1, 512]> aw_chunk_23_cast = mul(x = var_448_cast, y = var_449_to_fp16)[name = tensor<string, []>("aw_chunk_23_cast")];
            tensor<string, []> var_452_equation_0 = const()[name = tensor<string, []>("op_452_equation_0"), val = tensor<string, []>("bkhc,bchq->bkhq")];
            tensor<fp16, [2, 4096, 1, 512]> var_452_cast = einsum(equation = var_452_equation_0, values = (var_346_cast, var_286_cast))[name = tensor<string, []>("op_452_cast")];
            tensor<fp16, []> var_453_to_fp16 = const()[name = tensor<string, []>("op_453_to_fp16"), val = tensor<fp16, []>(0x1.43cp-3)];
            tensor<fp16, [2, 4096, 1, 512]> aw_chunk_25_cast = mul(x = var_452_cast, y = var_453_to_fp16)[name = tensor<string, []>("aw_chunk_25_cast")];
            tensor<string, []> var_456_equation_0 = const()[name = tensor<string, []>("op_456_equation_0"), val = tensor<string, []>("bkhc,bchq->bkhq")];
            tensor<fp16, [2, 4096, 1, 512]> var_456_cast = einsum(equation = var_456_equation_0, values = (var_346_cast, var_287_cast))[name = tensor<string, []>("op_456_cast")];
            tensor<fp16, []> var_457_to_fp16 = const()[name = tensor<string, []>("op_457_to_fp16"), val = tensor<fp16, []>(0x1.43cp-3)];
            tensor<fp16, [2, 4096, 1, 512]> aw_chunk_27_cast = mul(x = var_456_cast, y = var_457_to_fp16)[name = tensor<string, []>("aw_chunk_27_cast")];
            tensor<string, []> var_460_equation_0 = const()[name = tensor<string, []>("op_460_equation_0"), val = tensor<string, []>("bkhc,bchq->bkhq")];
            tensor<fp16, [2, 4096, 1, 512]> var_460_cast = einsum(equation = var_460_equation_0, values = (var_346_cast, var_288_cast))[name = tensor<string, []>("op_460_cast")];
            tensor<fp16, []> var_461_to_fp16 = const()[name = tensor<string, []>("op_461_to_fp16"), val = tensor<fp16, []>(0x1.43cp-3)];
            tensor<fp16, [2, 4096, 1, 512]> aw_chunk_29_cast = mul(x = var_460_cast, y = var_461_to_fp16)[name = tensor<string, []>("aw_chunk_29_cast")];
            tensor<string, []> var_464_equation_0 = const()[name = tensor<string, []>("op_464_equation_0"), val = tensor<string, []>("bkhc,bchq->bkhq")];
            tensor<fp16, [2, 4096, 1, 512]> var_464_cast = einsum(equation = var_464_equation_0, values = (var_346_cast, var_289_cast))[name = tensor<string, []>("op_464_cast")];
            tensor<fp16, []> var_465_to_fp16 = const()[name = tensor<string, []>("op_465_to_fp16"), val = tensor<fp16, []>(0x1.43cp-3)];
            tensor<fp16, [2, 4096, 1, 512]> aw_chunk_31_cast = mul(x = var_464_cast, y = var_465_to_fp16)[name = tensor<string, []>("aw_chunk_31_cast")];
            tensor<string, []> var_468_equation_0 = const()[name = tensor<string, []>("op_468_equation_0"), val = tensor<string, []>("bkhc,bchq->bkhq")];
            tensor<fp16, [2, 4096, 1, 512]> var_468_cast = einsum(equation = var_468_equation_0, values = (var_350_cast, var_290_cast))[name = tensor<string, []>("op_468_cast")];
            tensor<fp16, []> var_469_to_fp16 = const()[name = tensor<string, []>("op_469_to_fp16"), val = tensor<fp16, []>(0x1.43cp-3)];
            tensor<fp16, [2, 4096, 1, 512]> aw_chunk_33_cast = mul(x = var_468_cast, y = var_469_to_fp16)[name = tensor<string, []>("aw_chunk_33_cast")];
            tensor<string, []> var_472_equation_0 = const()[name = tensor<string, []>("op_472_equation_0"), val = tensor<string, []>("bkhc,bchq->bkhq")];
            tensor<fp16, [2, 4096, 1, 512]> var_472_cast = einsum(equation = var_472_equation_0, values = (var_350_cast, var_291_cast))[name = tensor<string, []>("op_472_cast")];
            tensor<fp16, []> var_473_to_fp16 = const()[name = tensor<string, []>("op_473_to_fp16"), val = tensor<fp16, []>(0x1.43cp-3)];
            tensor<fp16, [2, 4096, 1, 512]> aw_chunk_35_cast = mul(x = var_472_cast, y = var_473_to_fp16)[name = tensor<string, []>("aw_chunk_35_cast")];
            tensor<string, []> var_476_equation_0 = const()[name = tensor<string, []>("op_476_equation_0"), val = tensor<string, []>("bkhc,bchq->bkhq")];
            tensor<fp16, [2, 4096, 1, 512]> var_476_cast = einsum(equation = var_476_equation_0, values = (var_350_cast, var_292_cast))[name = tensor<string, []>("op_476_cast")];
            tensor<fp16, []> var_477_to_fp16 = const()[name = tensor<string, []>("op_477_to_fp16"), val = tensor<fp16, []>(0x1.43cp-3)];
            tensor<fp16, [2, 4096, 1, 512]> aw_chunk_37_cast = mul(x = var_476_cast, y = var_477_to_fp16)[name = tensor<string, []>("aw_chunk_37_cast")];
            tensor<string, []> var_480_equation_0 = const()[name = tensor<string, []>("op_480_equation_0"), val = tensor<string, []>("bkhc,bchq->bkhq")];
            tensor<fp16, [2, 4096, 1, 512]> var_480_cast = einsum(equation = var_480_equation_0, values = (var_350_cast, var_293_cast))[name = tensor<string, []>("op_480_cast")];
            tensor<fp16, []> var_481_to_fp16 = const()[name = tensor<string, []>("op_481_to_fp16"), val = tensor<fp16, []>(0x1.43cp-3)];
            tensor<fp16, [2, 4096, 1, 512]> aw_chunk_39_cast = mul(x = var_480_cast, y = var_481_to_fp16)[name = tensor<string, []>("aw_chunk_39_cast")];
            tensor<string, []> var_484_equation_0 = const()[name = tensor<string, []>("op_484_equation_0"), val = tensor<string, []>("bkhc,bchq->bkhq")];
            tensor<fp16, [2, 4096, 1, 512]> var_484_cast = einsum(equation = var_484_equation_0, values = (var_350_cast, var_294_cast))[name = tensor<string, []>("op_484_cast")];
            tensor<fp16, []> var_485_to_fp16 = const()[name = tensor<string, []>("op_485_to_fp16"), val = tensor<fp16, []>(0x1.43cp-3)];
            tensor<fp16, [2, 4096, 1, 512]> aw_chunk_41_cast = mul(x = var_484_cast, y = var_485_to_fp16)[name = tensor<string, []>("aw_chunk_41_cast")];
            tensor<string, []> var_488_equation_0 = const()[name = tensor<string, []>("op_488_equation_0"), val = tensor<string, []>("bkhc,bchq->bkhq")];
            tensor<fp16, [2, 4096, 1, 512]> var_488_cast = einsum(equation = var_488_equation_0, values = (var_350_cast, var_295_cast))[name = tensor<string, []>("op_488_cast")];
            tensor<fp16, []> var_489_to_fp16 = const()[name = tensor<string, []>("op_489_to_fp16"), val = tensor<fp16, []>(0x1.43cp-3)];
            tensor<fp16, [2, 4096, 1, 512]> aw_chunk_43_cast = mul(x = var_488_cast, y = var_489_to_fp16)[name = tensor<string, []>("aw_chunk_43_cast")];
            tensor<string, []> var_492_equation_0 = const()[name = tensor<string, []>("op_492_equation_0"), val = tensor<string, []>("bkhc,bchq->bkhq")];
            tensor<fp16, [2, 4096, 1, 512]> var_492_cast = einsum(equation = var_492_equation_0, values = (var_350_cast, var_296_cast))[name = tensor<string, []>("op_492_cast")];
            tensor<fp16, []> var_493_to_fp16 = const()[name = tensor<string, []>("op_493_to_fp16"), val = tensor<fp16, []>(0x1.43cp-3)];
            tensor<fp16, [2, 4096, 1, 512]> aw_chunk_45_cast = mul(x = var_492_cast, y = var_493_to_fp16)[name = tensor<string, []>("aw_chunk_45_cast")];
            tensor<string, []> var_496_equation_0 = const()[name = tensor<string, []>("op_496_equation_0"), val = tensor<string, []>("bkhc,bchq->bkhq")];
            tensor<fp16, [2, 4096, 1, 512]> var_496_cast = einsum(equation = var_496_equation_0, values = (var_350_cast, var_297_cast))[name = tensor<string, []>("op_496_cast")];
            tensor<fp16, []> var_497_to_fp16 = const()[name = tensor<string, []>("op_497_to_fp16"), val = tensor<fp16, []>(0x1.43cp-3)];
            tensor<fp16, [2, 4096, 1, 512]> aw_chunk_47_cast = mul(x = var_496_cast, y = var_497_to_fp16)[name = tensor<string, []>("aw_chunk_47_cast")];
            tensor<string, []> var_500_equation_0 = const()[name = tensor<string, []>("op_500_equation_0"), val = tensor<string, []>("bkhc,bchq->bkhq")];
            tensor<fp16, [2, 4096, 1, 512]> var_500_cast = einsum(equation = var_500_equation_0, values = (var_354_cast, var_298_cast))[name = tensor<string, []>("op_500_cast")];
            tensor<fp16, []> var_501_to_fp16 = const()[name = tensor<string, []>("op_501_to_fp16"), val = tensor<fp16, []>(0x1.43cp-3)];
            tensor<fp16, [2, 4096, 1, 512]> aw_chunk_49_cast = mul(x = var_500_cast, y = var_501_to_fp16)[name = tensor<string, []>("aw_chunk_49_cast")];
            tensor<string, []> var_504_equation_0 = const()[name = tensor<string, []>("op_504_equation_0"), val = tensor<string, []>("bkhc,bchq->bkhq")];
            tensor<fp16, [2, 4096, 1, 512]> var_504_cast = einsum(equation = var_504_equation_0, values = (var_354_cast, var_299_cast))[name = tensor<string, []>("op_504_cast")];
            tensor<fp16, []> var_505_to_fp16 = const()[name = tensor<string, []>("op_505_to_fp16"), val = tensor<fp16, []>(0x1.43cp-3)];
            tensor<fp16, [2, 4096, 1, 512]> aw_chunk_51_cast = mul(x = var_504_cast, y = var_505_to_fp16)[name = tensor<string, []>("aw_chunk_51_cast")];
            tensor<string, []> var_508_equation_0 = const()[name = tensor<string, []>("op_508_equation_0"), val = tensor<string, []>("bkhc,bchq->bkhq")];
            tensor<fp16, [2, 4096, 1, 512]> var_508_cast = einsum(equation = var_508_equation_0, values = (var_354_cast, var_300_cast))[name = tensor<string, []>("op_508_cast")];
            tensor<fp16, []> var_509_to_fp16 = const()[name = tensor<string, []>("op_509_to_fp16"), val = tensor<fp16, []>(0x1.43cp-3)];
            tensor<fp16, [2, 4096, 1, 512]> aw_chunk_53_cast = mul(x = var_508_cast, y = var_509_to_fp16)[name = tensor<string, []>("aw_chunk_53_cast")];
            tensor<string, []> var_512_equation_0 = const()[name = tensor<string, []>("op_512_equation_0"), val = tensor<string, []>("bkhc,bchq->bkhq")];
            tensor<fp16, [2, 4096, 1, 512]> var_512_cast = einsum(equation = var_512_equation_0, values = (var_354_cast, var_301_cast))[name = tensor<string, []>("op_512_cast")];
            tensor<fp16, []> var_513_to_fp16 = const()[name = tensor<string, []>("op_513_to_fp16"), val = tensor<fp16, []>(0x1.43cp-3)];
            tensor<fp16, [2, 4096, 1, 512]> aw_chunk_55_cast = mul(x = var_512_cast, y = var_513_to_fp16)[name = tensor<string, []>("aw_chunk_55_cast")];
            tensor<string, []> var_516_equation_0 = const()[name = tensor<string, []>("op_516_equation_0"), val = tensor<string, []>("bkhc,bchq->bkhq")];
            tensor<fp16, [2, 4096, 1, 512]> var_516_cast = einsum(equation = var_516_equation_0, values = (var_354_cast, var_302_cast))[name = tensor<string, []>("op_516_cast")];
            tensor<fp16, []> var_517_to_fp16 = const()[name = tensor<string, []>("op_517_to_fp16"), val = tensor<fp16, []>(0x1.43cp-3)];
            tensor<fp16, [2, 4096, 1, 512]> aw_chunk_57_cast = mul(x = var_516_cast, y = var_517_to_fp16)[name = tensor<string, []>("aw_chunk_57_cast")];
            tensor<string, []> var_520_equation_0 = const()[name = tensor<string, []>("op_520_equation_0"), val = tensor<string, []>("bkhc,bchq->bkhq")];
            tensor<fp16, [2, 4096, 1, 512]> var_520_cast = einsum(equation = var_520_equation_0, values = (var_354_cast, var_303_cast))[name = tensor<string, []>("op_520_cast")];
            tensor<fp16, []> var_521_to_fp16 = const()[name = tensor<string, []>("op_521_to_fp16"), val = tensor<fp16, []>(0x1.43cp-3)];
            tensor<fp16, [2, 4096, 1, 512]> aw_chunk_59_cast = mul(x = var_520_cast, y = var_521_to_fp16)[name = tensor<string, []>("aw_chunk_59_cast")];
            tensor<string, []> var_524_equation_0 = const()[name = tensor<string, []>("op_524_equation_0"), val = tensor<string, []>("bkhc,bchq->bkhq")];
            tensor<fp16, [2, 4096, 1, 512]> var_524_cast = einsum(equation = var_524_equation_0, values = (var_354_cast, var_304_cast))[name = tensor<string, []>("op_524_cast")];
            tensor<fp16, []> var_525_to_fp16 = const()[name = tensor<string, []>("op_525_to_fp16"), val = tensor<fp16, []>(0x1.43cp-3)];
            tensor<fp16, [2, 4096, 1, 512]> aw_chunk_61_cast = mul(x = var_524_cast, y = var_525_to_fp16)[name = tensor<string, []>("aw_chunk_61_cast")];
            tensor<string, []> var_528_equation_0 = const()[name = tensor<string, []>("op_528_equation_0"), val = tensor<string, []>("bkhc,bchq->bkhq")];
            tensor<fp16, [2, 4096, 1, 512]> var_528_cast = einsum(equation = var_528_equation_0, values = (var_354_cast, var_305_cast))[name = tensor<string, []>("op_528_cast")];
            tensor<fp16, []> var_529_to_fp16 = const()[name = tensor<string, []>("op_529_to_fp16"), val = tensor<fp16, []>(0x1.43cp-3)];
            tensor<fp16, [2, 4096, 1, 512]> aw_chunk_63_cast = mul(x = var_528_cast, y = var_529_to_fp16)[name = tensor<string, []>("aw_chunk_63_cast")];
            tensor<string, []> var_532_equation_0 = const()[name = tensor<string, []>("op_532_equation_0"), val = tensor<string, []>("bkhc,bchq->bkhq")];
            tensor<fp16, [2, 4096, 1, 512]> var_532_cast = einsum(equation = var_532_equation_0, values = (var_358_cast, var_306_cast))[name = tensor<string, []>("op_532_cast")];
            tensor<fp16, []> var_533_to_fp16 = const()[name = tensor<string, []>("op_533_to_fp16"), val = tensor<fp16, []>(0x1.43cp-3)];
            tensor<fp16, [2, 4096, 1, 512]> aw_chunk_65_cast = mul(x = var_532_cast, y = var_533_to_fp16)[name = tensor<string, []>("aw_chunk_65_cast")];
            tensor<string, []> var_536_equation_0 = const()[name = tensor<string, []>("op_536_equation_0"), val = tensor<string, []>("bkhc,bchq->bkhq")];
            tensor<fp16, [2, 4096, 1, 512]> var_536_cast = einsum(equation = var_536_equation_0, values = (var_358_cast, var_307_cast))[name = tensor<string, []>("op_536_cast")];
            tensor<fp16, []> var_537_to_fp16 = const()[name = tensor<string, []>("op_537_to_fp16"), val = tensor<fp16, []>(0x1.43cp-3)];
            tensor<fp16, [2, 4096, 1, 512]> aw_chunk_67_cast = mul(x = var_536_cast, y = var_537_to_fp16)[name = tensor<string, []>("aw_chunk_67_cast")];
            tensor<string, []> var_540_equation_0 = const()[name = tensor<string, []>("op_540_equation_0"), val = tensor<string, []>("bkhc,bchq->bkhq")];
            tensor<fp16, [2, 4096, 1, 512]> var_540_cast = einsum(equation = var_540_equation_0, values = (var_358_cast, var_308_cast))[name = tensor<string, []>("op_540_cast")];
            tensor<fp16, []> var_541_to_fp16 = const()[name = tensor<string, []>("op_541_to_fp16"), val = tensor<fp16, []>(0x1.43cp-3)];
            tensor<fp16, [2, 4096, 1, 512]> aw_chunk_69_cast = mul(x = var_540_cast, y = var_541_to_fp16)[name = tensor<string, []>("aw_chunk_69_cast")];
            tensor<string, []> var_544_equation_0 = const()[name = tensor<string, []>("op_544_equation_0"), val = tensor<string, []>("bkhc,bchq->bkhq")];
            tensor<fp16, [2, 4096, 1, 512]> var_544_cast = einsum(equation = var_544_equation_0, values = (var_358_cast, var_309_cast))[name = tensor<string, []>("op_544_cast")];
            tensor<fp16, []> var_545_to_fp16 = const()[name = tensor<string, []>("op_545_to_fp16"), val = tensor<fp16, []>(0x1.43cp-3)];
            tensor<fp16, [2, 4096, 1, 512]> aw_chunk_71_cast = mul(x = var_544_cast, y = var_545_to_fp16)[name = tensor<string, []>("aw_chunk_71_cast")];
            tensor<string, []> var_548_equation_0 = const()[name = tensor<string, []>("op_548_equation_0"), val = tensor<string, []>("bkhc,bchq->bkhq")];
            tensor<fp16, [2, 4096, 1, 512]> var_548_cast = einsum(equation = var_548_equation_0, values = (var_358_cast, var_310_cast))[name = tensor<string, []>("op_548_cast")];
            tensor<fp16, []> var_549_to_fp16 = const()[name = tensor<string, []>("op_549_to_fp16"), val = tensor<fp16, []>(0x1.43cp-3)];
            tensor<fp16, [2, 4096, 1, 512]> aw_chunk_73_cast = mul(x = var_548_cast, y = var_549_to_fp16)[name = tensor<string, []>("aw_chunk_73_cast")];
            tensor<string, []> var_552_equation_0 = const()[name = tensor<string, []>("op_552_equation_0"), val = tensor<string, []>("bkhc,bchq->bkhq")];
            tensor<fp16, [2, 4096, 1, 512]> var_552_cast = einsum(equation = var_552_equation_0, values = (var_358_cast, var_311_cast))[name = tensor<string, []>("op_552_cast")];
            tensor<fp16, []> var_553_to_fp16 = const()[name = tensor<string, []>("op_553_to_fp16"), val = tensor<fp16, []>(0x1.43cp-3)];
            tensor<fp16, [2, 4096, 1, 512]> aw_chunk_75_cast = mul(x = var_552_cast, y = var_553_to_fp16)[name = tensor<string, []>("aw_chunk_75_cast")];
            tensor<string, []> var_556_equation_0 = const()[name = tensor<string, []>("op_556_equation_0"), val = tensor<string, []>("bkhc,bchq->bkhq")];
            tensor<fp16, [2, 4096, 1, 512]> var_556_cast = einsum(equation = var_556_equation_0, values = (var_358_cast, var_312_cast))[name = tensor<string, []>("op_556_cast")];
            tensor<fp16, []> var_557_to_fp16 = const()[name = tensor<string, []>("op_557_to_fp16"), val = tensor<fp16, []>(0x1.43cp-3)];
            tensor<fp16, [2, 4096, 1, 512]> aw_chunk_77_cast = mul(x = var_556_cast, y = var_557_to_fp16)[name = tensor<string, []>("aw_chunk_77_cast")];
            tensor<string, []> var_560_equation_0 = const()[name = tensor<string, []>("op_560_equation_0"), val = tensor<string, []>("bkhc,bchq->bkhq")];
            tensor<fp16, [2, 4096, 1, 512]> var_560_cast = einsum(equation = var_560_equation_0, values = (var_358_cast, var_313_cast))[name = tensor<string, []>("op_560_cast")];
            tensor<fp16, []> var_561_to_fp16 = const()[name = tensor<string, []>("op_561_to_fp16"), val = tensor<fp16, []>(0x1.43cp-3)];
            tensor<fp16, [2, 4096, 1, 512]> aw_chunk_79_cast = mul(x = var_560_cast, y = var_561_to_fp16)[name = tensor<string, []>("aw_chunk_79_cast")];
            tensor<string, []> var_564_equation_0 = const()[name = tensor<string, []>("op_564_equation_0"), val = tensor<string, []>("bkhc,bchq->bkhq")];
            tensor<fp16, [2, 4096, 1, 512]> var_564_cast = einsum(equation = var_564_equation_0, values = (var_362_cast, var_314_cast))[name = tensor<string, []>("op_564_cast")];
            tensor<fp16, []> var_565_to_fp16 = const()[name = tensor<string, []>("op_565_to_fp16"), val = tensor<fp16, []>(0x1.43cp-3)];
            tensor<fp16, [2, 4096, 1, 512]> aw_chunk_81_cast = mul(x = var_564_cast, y = var_565_to_fp16)[name = tensor<string, []>("aw_chunk_81_cast")];
            tensor<string, []> var_568_equation_0 = const()[name = tensor<string, []>("op_568_equation_0"), val = tensor<string, []>("bkhc,bchq->bkhq")];
            tensor<fp16, [2, 4096, 1, 512]> var_568_cast = einsum(equation = var_568_equation_0, values = (var_362_cast, var_315_cast))[name = tensor<string, []>("op_568_cast")];
            tensor<fp16, []> var_569_to_fp16 = const()[name = tensor<string, []>("op_569_to_fp16"), val = tensor<fp16, []>(0x1.43cp-3)];
            tensor<fp16, [2, 4096, 1, 512]> aw_chunk_83_cast = mul(x = var_568_cast, y = var_569_to_fp16)[name = tensor<string, []>("aw_chunk_83_cast")];
            tensor<string, []> var_572_equation_0 = const()[name = tensor<string, []>("op_572_equation_0"), val = tensor<string, []>("bkhc,bchq->bkhq")];
            tensor<fp16, [2, 4096, 1, 512]> var_572_cast = einsum(equation = var_572_equation_0, values = (var_362_cast, var_316_cast))[name = tensor<string, []>("op_572_cast")];
            tensor<fp16, []> var_573_to_fp16 = const()[name = tensor<string, []>("op_573_to_fp16"), val = tensor<fp16, []>(0x1.43cp-3)];
            tensor<fp16, [2, 4096, 1, 512]> aw_chunk_85_cast = mul(x = var_572_cast, y = var_573_to_fp16)[name = tensor<string, []>("aw_chunk_85_cast")];
            tensor<string, []> var_576_equation_0 = const()[name = tensor<string, []>("op_576_equation_0"), val = tensor<string, []>("bkhc,bchq->bkhq")];
            tensor<fp16, [2, 4096, 1, 512]> var_576_cast = einsum(equation = var_576_equation_0, values = (var_362_cast, var_317_cast))[name = tensor<string, []>("op_576_cast")];
            tensor<fp16, []> var_577_to_fp16 = const()[name = tensor<string, []>("op_577_to_fp16"), val = tensor<fp16, []>(0x1.43cp-3)];
            tensor<fp16, [2, 4096, 1, 512]> aw_chunk_87_cast = mul(x = var_576_cast, y = var_577_to_fp16)[name = tensor<string, []>("aw_chunk_87_cast")];
            tensor<string, []> var_580_equation_0 = const()[name = tensor<string, []>("op_580_equation_0"), val = tensor<string, []>("bkhc,bchq->bkhq")];
            tensor<fp16, [2, 4096, 1, 512]> var_580_cast = einsum(equation = var_580_equation_0, values = (var_362_cast, var_318_cast))[name = tensor<string, []>("op_580_cast")];
            tensor<fp16, []> var_581_to_fp16 = const()[name = tensor<string, []>("op_581_to_fp16"), val = tensor<fp16, []>(0x1.43cp-3)];
            tensor<fp16, [2, 4096, 1, 512]> aw_chunk_89_cast = mul(x = var_580_cast, y = var_581_to_fp16)[name = tensor<string, []>("aw_chunk_89_cast")];
            tensor<string, []> var_584_equation_0 = const()[name = tensor<string, []>("op_584_equation_0"), val = tensor<string, []>("bkhc,bchq->bkhq")];
            tensor<fp16, [2, 4096, 1, 512]> var_584_cast = einsum(equation = var_584_equation_0, values = (var_362_cast, var_319_cast))[name = tensor<string, []>("op_584_cast")];
            tensor<fp16, []> var_585_to_fp16 = const()[name = tensor<string, []>("op_585_to_fp16"), val = tensor<fp16, []>(0x1.43cp-3)];
            tensor<fp16, [2, 4096, 1, 512]> aw_chunk_91_cast = mul(x = var_584_cast, y = var_585_to_fp16)[name = tensor<string, []>("aw_chunk_91_cast")];
            tensor<string, []> var_588_equation_0 = const()[name = tensor<string, []>("op_588_equation_0"), val = tensor<string, []>("bkhc,bchq->bkhq")];
            tensor<fp16, [2, 4096, 1, 512]> var_588_cast = einsum(equation = var_588_equation_0, values = (var_362_cast, var_320_cast))[name = tensor<string, []>("op_588_cast")];
            tensor<fp16, []> var_589_to_fp16 = const()[name = tensor<string, []>("op_589_to_fp16"), val = tensor<fp16, []>(0x1.43cp-3)];
            tensor<fp16, [2, 4096, 1, 512]> aw_chunk_93_cast = mul(x = var_588_cast, y = var_589_to_fp16)[name = tensor<string, []>("aw_chunk_93_cast")];
            tensor<string, []> var_592_equation_0 = const()[name = tensor<string, []>("op_592_equation_0"), val = tensor<string, []>("bkhc,bchq->bkhq")];
            tensor<fp16, [2, 4096, 1, 512]> var_592_cast = einsum(equation = var_592_equation_0, values = (var_362_cast, var_321_cast))[name = tensor<string, []>("op_592_cast")];
            tensor<fp16, []> var_593_to_fp16 = const()[name = tensor<string, []>("op_593_to_fp16"), val = tensor<fp16, []>(0x1.43cp-3)];
            tensor<fp16, [2, 4096, 1, 512]> aw_chunk_95_cast = mul(x = var_592_cast, y = var_593_to_fp16)[name = tensor<string, []>("aw_chunk_95_cast")];
            tensor<string, []> var_596_equation_0 = const()[name = tensor<string, []>("op_596_equation_0"), val = tensor<string, []>("bkhc,bchq->bkhq")];
            tensor<fp16, [2, 4096, 1, 512]> var_596_cast = einsum(equation = var_596_equation_0, values = (var_366_cast, var_322_cast))[name = tensor<string, []>("op_596_cast")];
            tensor<fp16, []> var_597_to_fp16 = const()[name = tensor<string, []>("op_597_to_fp16"), val = tensor<fp16, []>(0x1.43cp-3)];
            tensor<fp16, [2, 4096, 1, 512]> aw_chunk_97_cast = mul(x = var_596_cast, y = var_597_to_fp16)[name = tensor<string, []>("aw_chunk_97_cast")];
            tensor<string, []> var_600_equation_0 = const()[name = tensor<string, []>("op_600_equation_0"), val = tensor<string, []>("bkhc,bchq->bkhq")];
            tensor<fp16, [2, 4096, 1, 512]> var_600_cast = einsum(equation = var_600_equation_0, values = (var_366_cast, var_323_cast))[name = tensor<string, []>("op_600_cast")];
            tensor<fp16, []> var_601_to_fp16 = const()[name = tensor<string, []>("op_601_to_fp16"), val = tensor<fp16, []>(0x1.43cp-3)];
            tensor<fp16, [2, 4096, 1, 512]> aw_chunk_99_cast = mul(x = var_600_cast, y = var_601_to_fp16)[name = tensor<string, []>("aw_chunk_99_cast")];
            tensor<string, []> var_604_equation_0 = const()[name = tensor<string, []>("op_604_equation_0"), val = tensor<string, []>("bkhc,bchq->bkhq")];
            tensor<fp16, [2, 4096, 1, 512]> var_604_cast = einsum(equation = var_604_equation_0, values = (var_366_cast, var_324_cast))[name = tensor<string, []>("op_604_cast")];
            tensor<fp16, []> var_605_to_fp16 = const()[name = tensor<string, []>("op_605_to_fp16"), val = tensor<fp16, []>(0x1.43cp-3)];
            tensor<fp16, [2, 4096, 1, 512]> aw_chunk_101_cast = mul(x = var_604_cast, y = var_605_to_fp16)[name = tensor<string, []>("aw_chunk_101_cast")];
            tensor<string, []> var_608_equation_0 = const()[name = tensor<string, []>("op_608_equation_0"), val = tensor<string, []>("bkhc,bchq->bkhq")];
            tensor<fp16, [2, 4096, 1, 512]> var_608_cast = einsum(equation = var_608_equation_0, values = (var_366_cast, var_325_cast))[name = tensor<string, []>("op_608_cast")];
            tensor<fp16, []> var_609_to_fp16 = const()[name = tensor<string, []>("op_609_to_fp16"), val = tensor<fp16, []>(0x1.43cp-3)];
            tensor<fp16, [2, 4096, 1, 512]> aw_chunk_103_cast = mul(x = var_608_cast, y = var_609_to_fp16)[name = tensor<string, []>("aw_chunk_103_cast")];
            tensor<string, []> var_612_equation_0 = const()[name = tensor<string, []>("op_612_equation_0"), val = tensor<string, []>("bkhc,bchq->bkhq")];
            tensor<fp16, [2, 4096, 1, 512]> var_612_cast = einsum(equation = var_612_equation_0, values = (var_366_cast, var_326_cast))[name = tensor<string, []>("op_612_cast")];
            tensor<fp16, []> var_613_to_fp16 = const()[name = tensor<string, []>("op_613_to_fp16"), val = tensor<fp16, []>(0x1.43cp-3)];
            tensor<fp16, [2, 4096, 1, 512]> aw_chunk_105_cast = mul(x = var_612_cast, y = var_613_to_fp16)[name = tensor<string, []>("aw_chunk_105_cast")];
            tensor<string, []> var_616_equation_0 = const()[name = tensor<string, []>("op_616_equation_0"), val = tensor<string, []>("bkhc,bchq->bkhq")];
            tensor<fp16, [2, 4096, 1, 512]> var_616_cast = einsum(equation = var_616_equation_0, values = (var_366_cast, var_327_cast))[name = tensor<string, []>("op_616_cast")];
            tensor<fp16, []> var_617_to_fp16 = const()[name = tensor<string, []>("op_617_to_fp16"), val = tensor<fp16, []>(0x1.43cp-3)];
            tensor<fp16, [2, 4096, 1, 512]> aw_chunk_107_cast = mul(x = var_616_cast, y = var_617_to_fp16)[name = tensor<string, []>("aw_chunk_107_cast")];
            tensor<string, []> var_620_equation_0 = const()[name = tensor<string, []>("op_620_equation_0"), val = tensor<string, []>("bkhc,bchq->bkhq")];
            tensor<fp16, [2, 4096, 1, 512]> var_620_cast = einsum(equation = var_620_equation_0, values = (var_366_cast, var_328_cast))[name = tensor<string, []>("op_620_cast")];
            tensor<fp16, []> var_621_to_fp16 = const()[name = tensor<string, []>("op_621_to_fp16"), val = tensor<fp16, []>(0x1.43cp-3)];
            tensor<fp16, [2, 4096, 1, 512]> aw_chunk_109_cast = mul(x = var_620_cast, y = var_621_to_fp16)[name = tensor<string, []>("aw_chunk_109_cast")];
            tensor<string, []> var_624_equation_0 = const()[name = tensor<string, []>("op_624_equation_0"), val = tensor<string, []>("bkhc,bchq->bkhq")];
            tensor<fp16, [2, 4096, 1, 512]> var_624_cast = einsum(equation = var_624_equation_0, values = (var_366_cast, var_329_cast))[name = tensor<string, []>("op_624_cast")];
            tensor<fp16, []> var_625_to_fp16 = const()[name = tensor<string, []>("op_625_to_fp16"), val = tensor<fp16, []>(0x1.43cp-3)];
            tensor<fp16, [2, 4096, 1, 512]> aw_chunk_111_cast = mul(x = var_624_cast, y = var_625_to_fp16)[name = tensor<string, []>("aw_chunk_111_cast")];
            tensor<string, []> var_628_equation_0 = const()[name = tensor<string, []>("op_628_equation_0"), val = tensor<string, []>("bkhc,bchq->bkhq")];
            tensor<fp16, [2, 4096, 1, 512]> var_628_cast = einsum(equation = var_628_equation_0, values = (var_370_cast, var_330_cast))[name = tensor<string, []>("op_628_cast")];
            tensor<fp16, []> var_629_to_fp16 = const()[name = tensor<string, []>("op_629_to_fp16"), val = tensor<fp16, []>(0x1.43cp-3)];
            tensor<fp16, [2, 4096, 1, 512]> aw_chunk_113_cast = mul(x = var_628_cast, y = var_629_to_fp16)[name = tensor<string, []>("aw_chunk_113_cast")];
            tensor<string, []> var_632_equation_0 = const()[name = tensor<string, []>("op_632_equation_0"), val = tensor<string, []>("bkhc,bchq->bkhq")];
            tensor<fp16, [2, 4096, 1, 512]> var_632_cast = einsum(equation = var_632_equation_0, values = (var_370_cast, var_331_cast))[name = tensor<string, []>("op_632_cast")];
            tensor<fp16, []> var_633_to_fp16 = const()[name = tensor<string, []>("op_633_to_fp16"), val = tensor<fp16, []>(0x1.43cp-3)];
            tensor<fp16, [2, 4096, 1, 512]> aw_chunk_115_cast = mul(x = var_632_cast, y = var_633_to_fp16)[name = tensor<string, []>("aw_chunk_115_cast")];
            tensor<string, []> var_636_equation_0 = const()[name = tensor<string, []>("op_636_equation_0"), val = tensor<string, []>("bkhc,bchq->bkhq")];
            tensor<fp16, [2, 4096, 1, 512]> var_636_cast = einsum(equation = var_636_equation_0, values = (var_370_cast, var_332_cast))[name = tensor<string, []>("op_636_cast")];
            tensor<fp16, []> var_637_to_fp16 = const()[name = tensor<string, []>("op_637_to_fp16"), val = tensor<fp16, []>(0x1.43cp-3)];
            tensor<fp16, [2, 4096, 1, 512]> aw_chunk_117_cast = mul(x = var_636_cast, y = var_637_to_fp16)[name = tensor<string, []>("aw_chunk_117_cast")];
            tensor<string, []> var_640_equation_0 = const()[name = tensor<string, []>("op_640_equation_0"), val = tensor<string, []>("bkhc,bchq->bkhq")];
            tensor<fp16, [2, 4096, 1, 512]> var_640_cast = einsum(equation = var_640_equation_0, values = (var_370_cast, var_333_cast))[name = tensor<string, []>("op_640_cast")];
            tensor<fp16, []> var_641_to_fp16 = const()[name = tensor<string, []>("op_641_to_fp16"), val = tensor<fp16, []>(0x1.43cp-3)];
            tensor<fp16, [2, 4096, 1, 512]> aw_chunk_119_cast = mul(x = var_640_cast, y = var_641_to_fp16)[name = tensor<string, []>("aw_chunk_119_cast")];
            tensor<string, []> var_644_equation_0 = const()[name = tensor<string, []>("op_644_equation_0"), val = tensor<string, []>("bkhc,bchq->bkhq")];
            tensor<fp16, [2, 4096, 1, 512]> var_644_cast = einsum(equation = var_644_equation_0, values = (var_370_cast, var_334_cast))[name = tensor<string, []>("op_644_cast")];
            tensor<fp16, []> var_645_to_fp16 = const()[name = tensor<string, []>("op_645_to_fp16"), val = tensor<fp16, []>(0x1.43cp-3)];
            tensor<fp16, [2, 4096, 1, 512]> aw_chunk_121_cast = mul(x = var_644_cast, y = var_645_to_fp16)[name = tensor<string, []>("aw_chunk_121_cast")];
            tensor<string, []> var_648_equation_0 = const()[name = tensor<string, []>("op_648_equation_0"), val = tensor<string, []>("bkhc,bchq->bkhq")];
            tensor<fp16, [2, 4096, 1, 512]> var_648_cast = einsum(equation = var_648_equation_0, values = (var_370_cast, var_335_cast))[name = tensor<string, []>("op_648_cast")];
            tensor<fp16, []> var_649_to_fp16 = const()[name = tensor<string, []>("op_649_to_fp16"), val = tensor<fp16, []>(0x1.43cp-3)];
            tensor<fp16, [2, 4096, 1, 512]> aw_chunk_123_cast = mul(x = var_648_cast, y = var_649_to_fp16)[name = tensor<string, []>("aw_chunk_123_cast")];
            tensor<string, []> var_652_equation_0 = const()[name = tensor<string, []>("op_652_equation_0"), val = tensor<string, []>("bkhc,bchq->bkhq")];
            tensor<fp16, [2, 4096, 1, 512]> var_652_cast = einsum(equation = var_652_equation_0, values = (var_370_cast, var_336_cast))[name = tensor<string, []>("op_652_cast")];
            tensor<fp16, []> var_653_to_fp16 = const()[name = tensor<string, []>("op_653_to_fp16"), val = tensor<fp16, []>(0x1.43cp-3)];
            tensor<fp16, [2, 4096, 1, 512]> aw_chunk_125_cast = mul(x = var_652_cast, y = var_653_to_fp16)[name = tensor<string, []>("aw_chunk_125_cast")];
            tensor<string, []> var_656_equation_0 = const()[name = tensor<string, []>("op_656_equation_0"), val = tensor<string, []>("bkhc,bchq->bkhq")];
            tensor<fp16, [2, 4096, 1, 512]> var_656_cast = einsum(equation = var_656_equation_0, values = (var_370_cast, var_337_cast))[name = tensor<string, []>("op_656_cast")];
            tensor<fp16, []> var_657_to_fp16 = const()[name = tensor<string, []>("op_657_to_fp16"), val = tensor<fp16, []>(0x1.43cp-3)];
            tensor<fp16, [2, 4096, 1, 512]> aw_chunk_127_cast = mul(x = var_656_cast, y = var_657_to_fp16)[name = tensor<string, []>("aw_chunk_127_cast")];
            tensor<fp16, [2, 4096, 1, 512]> var_659_cast = softmax(axis = var_123, x = aw_chunk_1_cast)[name = tensor<string, []>("op_659_cast")];
            tensor<fp16, [2, 4096, 1, 512]> var_660_cast = softmax(axis = var_123, x = aw_chunk_3_cast)[name = tensor<string, []>("op_660_cast")];
            tensor<fp16, [2, 4096, 1, 512]> var_661_cast = softmax(axis = var_123, x = aw_chunk_5_cast)[name = tensor<string, []>("op_661_cast")];
            tensor<fp16, [2, 4096, 1, 512]> var_662_cast = softmax(axis = var_123, x = aw_chunk_7_cast)[name = tensor<string, []>("op_662_cast")];
            tensor<fp16, [2, 4096, 1, 512]> var_663_cast = softmax(axis = var_123, x = aw_chunk_9_cast)[name = tensor<string, []>("op_663_cast")];
            tensor<fp16, [2, 4096, 1, 512]> var_664_cast = softmax(axis = var_123, x = aw_chunk_11_cast)[name = tensor<string, []>("op_664_cast")];
            tensor<fp16, [2, 4096, 1, 512]> var_665_cast = softmax(axis = var_123, x = aw_chunk_13_cast)[name = tensor<string, []>("op_665_cast")];
            tensor<fp16, [2, 4096, 1, 512]> var_666_cast = softmax(axis = var_123, x = aw_chunk_15_cast)[name = tensor<string, []>("op_666_cast")];
            tensor<fp16, [2, 4096, 1, 512]> var_667_cast = softmax(axis = var_123, x = aw_chunk_17_cast)[name = tensor<string, []>("op_667_cast")];
            tensor<fp16, [2, 4096, 1, 512]> var_668_cast = softmax(axis = var_123, x = aw_chunk_19_cast)[name = tensor<string, []>("op_668_cast")];
            tensor<fp16, [2, 4096, 1, 512]> var_669_cast = softmax(axis = var_123, x = aw_chunk_21_cast)[name = tensor<string, []>("op_669_cast")];
            tensor<fp16, [2, 4096, 1, 512]> var_670_cast = softmax(axis = var_123, x = aw_chunk_23_cast)[name = tensor<string, []>("op_670_cast")];
            tensor<fp16, [2, 4096, 1, 512]> var_671_cast = softmax(axis = var_123, x = aw_chunk_25_cast)[name = tensor<string, []>("op_671_cast")];
            tensor<fp16, [2, 4096, 1, 512]> var_672_cast = softmax(axis = var_123, x = aw_chunk_27_cast)[name = tensor<string, []>("op_672_cast")];
            tensor<fp16, [2, 4096, 1, 512]> var_673_cast = softmax(axis = var_123, x = aw_chunk_29_cast)[name = tensor<string, []>("op_673_cast")];
            tensor<fp16, [2, 4096, 1, 512]> var_674_cast = softmax(axis = var_123, x = aw_chunk_31_cast)[name = tensor<string, []>("op_674_cast")];
            tensor<fp16, [2, 4096, 1, 512]> var_675_cast = softmax(axis = var_123, x = aw_chunk_33_cast)[name = tensor<string, []>("op_675_cast")];
            tensor<fp16, [2, 4096, 1, 512]> var_676_cast = softmax(axis = var_123, x = aw_chunk_35_cast)[name = tensor<string, []>("op_676_cast")];
            tensor<fp16, [2, 4096, 1, 512]> var_677_cast = softmax(axis = var_123, x = aw_chunk_37_cast)[name = tensor<string, []>("op_677_cast")];
            tensor<fp16, [2, 4096, 1, 512]> var_678_cast = softmax(axis = var_123, x = aw_chunk_39_cast)[name = tensor<string, []>("op_678_cast")];
            tensor<fp16, [2, 4096, 1, 512]> var_679_cast = softmax(axis = var_123, x = aw_chunk_41_cast)[name = tensor<string, []>("op_679_cast")];
            tensor<fp16, [2, 4096, 1, 512]> var_680_cast = softmax(axis = var_123, x = aw_chunk_43_cast)[name = tensor<string, []>("op_680_cast")];
            tensor<fp16, [2, 4096, 1, 512]> var_681_cast = softmax(axis = var_123, x = aw_chunk_45_cast)[name = tensor<string, []>("op_681_cast")];
            tensor<fp16, [2, 4096, 1, 512]> var_682_cast = softmax(axis = var_123, x = aw_chunk_47_cast)[name = tensor<string, []>("op_682_cast")];
            tensor<fp16, [2, 4096, 1, 512]> var_683_cast = softmax(axis = var_123, x = aw_chunk_49_cast)[name = tensor<string, []>("op_683_cast")];
            tensor<fp16, [2, 4096, 1, 512]> var_684_cast = softmax(axis = var_123, x = aw_chunk_51_cast)[name = tensor<string, []>("op_684_cast")];
            tensor<fp16, [2, 4096, 1, 512]> var_685_cast = softmax(axis = var_123, x = aw_chunk_53_cast)[name = tensor<string, []>("op_685_cast")];
            tensor<fp16, [2, 4096, 1, 512]> var_686_cast = softmax(axis = var_123, x = aw_chunk_55_cast)[name = tensor<string, []>("op_686_cast")];
            tensor<fp16, [2, 4096, 1, 512]> var_687_cast = softmax(axis = var_123, x = aw_chunk_57_cast)[name = tensor<string, []>("op_687_cast")];
            tensor<fp16, [2, 4096, 1, 512]> var_688_cast = softmax(axis = var_123, x = aw_chunk_59_cast)[name = tensor<string, []>("op_688_cast")];
            tensor<fp16, [2, 4096, 1, 512]> var_689_cast = softmax(axis = var_123, x = aw_chunk_61_cast)[name = tensor<string, []>("op_689_cast")];
            tensor<fp16, [2, 4096, 1, 512]> var_690_cast = softmax(axis = var_123, x = aw_chunk_63_cast)[name = tensor<string, []>("op_690_cast")];
            tensor<fp16, [2, 4096, 1, 512]> var_691_cast = softmax(axis = var_123, x = aw_chunk_65_cast)[name = tensor<string, []>("op_691_cast")];
            tensor<fp16, [2, 4096, 1, 512]> var_692_cast = softmax(axis = var_123, x = aw_chunk_67_cast)[name = tensor<string, []>("op_692_cast")];
            tensor<fp16, [2, 4096, 1, 512]> var_693_cast = softmax(axis = var_123, x = aw_chunk_69_cast)[name = tensor<string, []>("op_693_cast")];
            tensor<fp16, [2, 4096, 1, 512]> var_694_cast = softmax(axis = var_123, x = aw_chunk_71_cast)[name = tensor<string, []>("op_694_cast")];
            tensor<fp16, [2, 4096, 1, 512]> var_695_cast = softmax(axis = var_123, x = aw_chunk_73_cast)[name = tensor<string, []>("op_695_cast")];
            tensor<fp16, [2, 4096, 1, 512]> var_696_cast = softmax(axis = var_123, x = aw_chunk_75_cast)[name = tensor<string, []>("op_696_cast")];
            tensor<fp16, [2, 4096, 1, 512]> var_697_cast = softmax(axis = var_123, x = aw_chunk_77_cast)[name = tensor<string, []>("op_697_cast")];
            tensor<fp16, [2, 4096, 1, 512]> var_698_cast = softmax(axis = var_123, x = aw_chunk_79_cast)[name = tensor<string, []>("op_698_cast")];
            tensor<fp16, [2, 4096, 1, 512]> var_699_cast = softmax(axis = var_123, x = aw_chunk_81_cast)[name = tensor<string, []>("op_699_cast")];
            tensor<fp16, [2, 4096, 1, 512]> var_700_cast = softmax(axis = var_123, x = aw_chunk_83_cast)[name = tensor<string, []>("op_700_cast")];
            tensor<fp16, [2, 4096, 1, 512]> var_701_cast = softmax(axis = var_123, x = aw_chunk_85_cast)[name = tensor<string, []>("op_701_cast")];
            tensor<fp16, [2, 4096, 1, 512]> var_702_cast = softmax(axis = var_123, x = aw_chunk_87_cast)[name = tensor<string, []>("op_702_cast")];
            tensor<fp16, [2, 4096, 1, 512]> var_703_cast = softmax(axis = var_123, x = aw_chunk_89_cast)[name = tensor<string, []>("op_703_cast")];
            tensor<fp16, [2, 4096, 1, 512]> var_704_cast = softmax(axis = var_123, x = aw_chunk_91_cast)[name = tensor<string, []>("op_704_cast")];
            tensor<fp16, [2, 4096, 1, 512]> var_705_cast = softmax(axis = var_123, x = aw_chunk_93_cast)[name = tensor<string, []>("op_705_cast")];
            tensor<fp16, [2, 4096, 1, 512]> var_706_cast = softmax(axis = var_123, x = aw_chunk_95_cast)[name = tensor<string, []>("op_706_cast")];
            tensor<fp16, [2, 4096, 1, 512]> var_707_cast = softmax(axis = var_123, x = aw_chunk_97_cast)[name = tensor<string, []>("op_707_cast")];
            tensor<fp16, [2, 4096, 1, 512]> var_708_cast = softmax(axis = var_123, x = aw_chunk_99_cast)[name = tensor<string, []>("op_708_cast")];
            tensor<fp16, [2, 4096, 1, 512]> var_709_cast = softmax(axis = var_123, x = aw_chunk_101_cast)[name = tensor<string, []>("op_709_cast")];
            tensor<fp16, [2, 4096, 1, 512]> var_710_cast = softmax(axis = var_123, x = aw_chunk_103_cast)[name = tensor<string, []>("op_710_cast")];
            tensor<fp16, [2, 4096, 1, 512]> var_711_cast = softmax(axis = var_123, x = aw_chunk_105_cast)[name = tensor<string, []>("op_711_cast")];
            tensor<fp16, [2, 4096, 1, 512]> var_712_cast = softmax(axis = var_123, x = aw_chunk_107_cast)[name = tensor<string, []>("op_712_cast")];
            tensor<fp16, [2, 4096, 1, 512]> var_713_cast = softmax(axis = var_123, x = aw_chunk_109_cast)[name = tensor<string, []>("op_713_cast")];
            tensor<fp16, [2, 4096, 1, 512]> var_714_cast = softmax(axis = var_123, x = aw_chunk_111_cast)[name = tensor<string, []>("op_714_cast")];
            tensor<fp16, [2, 4096, 1, 512]> var_715_cast = softmax(axis = var_123, x = aw_chunk_113_cast)[name = tensor<string, []>("op_715_cast")];
            tensor<fp16, [2, 4096, 1, 512]> var_716_cast = softmax(axis = var_123, x = aw_chunk_115_cast)[name = tensor<string, []>("op_716_cast")];
            tensor<fp16, [2, 4096, 1, 512]> var_717_cast = softmax(axis = var_123, x = aw_chunk_117_cast)[name = tensor<string, []>("op_717_cast")];
            tensor<fp16, [2, 4096, 1, 512]> var_718_cast = softmax(axis = var_123, x = aw_chunk_119_cast)[name = tensor<string, []>("op_718_cast")];
            tensor<fp16, [2, 4096, 1, 512]> var_719_cast = softmax(axis = var_123, x = aw_chunk_121_cast)[name = tensor<string, []>("op_719_cast")];
            tensor<fp16, [2, 4096, 1, 512]> var_720_cast = softmax(axis = var_123, x = aw_chunk_123_cast)[name = tensor<string, []>("op_720_cast")];
            tensor<fp16, [2, 4096, 1, 512]> var_721_cast = softmax(axis = var_123, x = aw_chunk_125_cast)[name = tensor<string, []>("op_721_cast")];
            tensor<fp16, [2, 4096, 1, 512]> var_722_cast = softmax(axis = var_123, x = aw_chunk_127_cast)[name = tensor<string, []>("op_722_cast")];
            tensor<string, []> var_724_equation_0 = const()[name = tensor<string, []>("op_724_equation_0"), val = tensor<string, []>("bchk,bkhq->bchq")];
            tensor<fp16, [2, 40, 1, 512]> var_724_cast = einsum(equation = var_724_equation_0, values = (var_372_cast, var_659_cast))[name = tensor<string, []>("op_724_cast")];
            tensor<string, []> var_726_equation_0 = const()[name = tensor<string, []>("op_726_equation_0"), val = tensor<string, []>("bchk,bkhq->bchq")];
            tensor<fp16, [2, 40, 1, 512]> var_726_cast = einsum(equation = var_726_equation_0, values = (var_372_cast, var_660_cast))[name = tensor<string, []>("op_726_cast")];
            tensor<string, []> var_728_equation_0 = const()[name = tensor<string, []>("op_728_equation_0"), val = tensor<string, []>("bchk,bkhq->bchq")];
            tensor<fp16, [2, 40, 1, 512]> var_728_cast = einsum(equation = var_728_equation_0, values = (var_372_cast, var_661_cast))[name = tensor<string, []>("op_728_cast")];
            tensor<string, []> var_730_equation_0 = const()[name = tensor<string, []>("op_730_equation_0"), val = tensor<string, []>("bchk,bkhq->bchq")];
            tensor<fp16, [2, 40, 1, 512]> var_730_cast = einsum(equation = var_730_equation_0, values = (var_372_cast, var_662_cast))[name = tensor<string, []>("op_730_cast")];
            tensor<string, []> var_732_equation_0 = const()[name = tensor<string, []>("op_732_equation_0"), val = tensor<string, []>("bchk,bkhq->bchq")];
            tensor<fp16, [2, 40, 1, 512]> var_732_cast = einsum(equation = var_732_equation_0, values = (var_372_cast, var_663_cast))[name = tensor<string, []>("op_732_cast")];
            tensor<string, []> var_734_equation_0 = const()[name = tensor<string, []>("op_734_equation_0"), val = tensor<string, []>("bchk,bkhq->bchq")];
            tensor<fp16, [2, 40, 1, 512]> var_734_cast = einsum(equation = var_734_equation_0, values = (var_372_cast, var_664_cast))[name = tensor<string, []>("op_734_cast")];
            tensor<string, []> var_736_equation_0 = const()[name = tensor<string, []>("op_736_equation_0"), val = tensor<string, []>("bchk,bkhq->bchq")];
            tensor<fp16, [2, 40, 1, 512]> var_736_cast = einsum(equation = var_736_equation_0, values = (var_372_cast, var_665_cast))[name = tensor<string, []>("op_736_cast")];
            tensor<string, []> var_738_equation_0 = const()[name = tensor<string, []>("op_738_equation_0"), val = tensor<string, []>("bchk,bkhq->bchq")];
            tensor<fp16, [2, 40, 1, 512]> var_738_cast = einsum(equation = var_738_equation_0, values = (var_372_cast, var_666_cast))[name = tensor<string, []>("op_738_cast")];
            tensor<string, []> var_740_equation_0 = const()[name = tensor<string, []>("op_740_equation_0"), val = tensor<string, []>("bchk,bkhq->bchq")];
            tensor<fp16, [2, 40, 1, 512]> var_740_cast = einsum(equation = var_740_equation_0, values = (var_376_cast, var_667_cast))[name = tensor<string, []>("op_740_cast")];
            tensor<string, []> var_742_equation_0 = const()[name = tensor<string, []>("op_742_equation_0"), val = tensor<string, []>("bchk,bkhq->bchq")];
            tensor<fp16, [2, 40, 1, 512]> var_742_cast = einsum(equation = var_742_equation_0, values = (var_376_cast, var_668_cast))[name = tensor<string, []>("op_742_cast")];
            tensor<string, []> var_744_equation_0 = const()[name = tensor<string, []>("op_744_equation_0"), val = tensor<string, []>("bchk,bkhq->bchq")];
            tensor<fp16, [2, 40, 1, 512]> var_744_cast = einsum(equation = var_744_equation_0, values = (var_376_cast, var_669_cast))[name = tensor<string, []>("op_744_cast")];
            tensor<string, []> var_746_equation_0 = const()[name = tensor<string, []>("op_746_equation_0"), val = tensor<string, []>("bchk,bkhq->bchq")];
            tensor<fp16, [2, 40, 1, 512]> var_746_cast = einsum(equation = var_746_equation_0, values = (var_376_cast, var_670_cast))[name = tensor<string, []>("op_746_cast")];
            tensor<string, []> var_748_equation_0 = const()[name = tensor<string, []>("op_748_equation_0"), val = tensor<string, []>("bchk,bkhq->bchq")];
            tensor<fp16, [2, 40, 1, 512]> var_748_cast = einsum(equation = var_748_equation_0, values = (var_376_cast, var_671_cast))[name = tensor<string, []>("op_748_cast")];
            tensor<string, []> var_750_equation_0 = const()[name = tensor<string, []>("op_750_equation_0"), val = tensor<string, []>("bchk,bkhq->bchq")];
            tensor<fp16, [2, 40, 1, 512]> var_750_cast = einsum(equation = var_750_equation_0, values = (var_376_cast, var_672_cast))[name = tensor<string, []>("op_750_cast")];
            tensor<string, []> var_752_equation_0 = const()[name = tensor<string, []>("op_752_equation_0"), val = tensor<string, []>("bchk,bkhq->bchq")];
            tensor<fp16, [2, 40, 1, 512]> var_752_cast = einsum(equation = var_752_equation_0, values = (var_376_cast, var_673_cast))[name = tensor<string, []>("op_752_cast")];
            tensor<string, []> var_754_equation_0 = const()[name = tensor<string, []>("op_754_equation_0"), val = tensor<string, []>("bchk,bkhq->bchq")];
            tensor<fp16, [2, 40, 1, 512]> var_754_cast = einsum(equation = var_754_equation_0, values = (var_376_cast, var_674_cast))[name = tensor<string, []>("op_754_cast")];
            tensor<string, []> var_756_equation_0 = const()[name = tensor<string, []>("op_756_equation_0"), val = tensor<string, []>("bchk,bkhq->bchq")];
            tensor<fp16, [2, 40, 1, 512]> var_756_cast = einsum(equation = var_756_equation_0, values = (var_380_cast, var_675_cast))[name = tensor<string, []>("op_756_cast")];
            tensor<string, []> var_758_equation_0 = const()[name = tensor<string, []>("op_758_equation_0"), val = tensor<string, []>("bchk,bkhq->bchq")];
            tensor<fp16, [2, 40, 1, 512]> var_758_cast = einsum(equation = var_758_equation_0, values = (var_380_cast, var_676_cast))[name = tensor<string, []>("op_758_cast")];
            tensor<string, []> var_760_equation_0 = const()[name = tensor<string, []>("op_760_equation_0"), val = tensor<string, []>("bchk,bkhq->bchq")];
            tensor<fp16, [2, 40, 1, 512]> var_760_cast = einsum(equation = var_760_equation_0, values = (var_380_cast, var_677_cast))[name = tensor<string, []>("op_760_cast")];
            tensor<string, []> var_762_equation_0 = const()[name = tensor<string, []>("op_762_equation_0"), val = tensor<string, []>("bchk,bkhq->bchq")];
            tensor<fp16, [2, 40, 1, 512]> var_762_cast = einsum(equation = var_762_equation_0, values = (var_380_cast, var_678_cast))[name = tensor<string, []>("op_762_cast")];
            tensor<string, []> var_764_equation_0 = const()[name = tensor<string, []>("op_764_equation_0"), val = tensor<string, []>("bchk,bkhq->bchq")];
            tensor<fp16, [2, 40, 1, 512]> var_764_cast = einsum(equation = var_764_equation_0, values = (var_380_cast, var_679_cast))[name = tensor<string, []>("op_764_cast")];
            tensor<string, []> var_766_equation_0 = const()[name = tensor<string, []>("op_766_equation_0"), val = tensor<string, []>("bchk,bkhq->bchq")];
            tensor<fp16, [2, 40, 1, 512]> var_766_cast = einsum(equation = var_766_equation_0, values = (var_380_cast, var_680_cast))[name = tensor<string, []>("op_766_cast")];
…
            tensor<fp16, [2, 77, 1, 512]> var_14585_cast = softmax(axis = var_10375, x = aw_chunk_1521_cast)[name = tensor<string, []>("op_14585_cast")];
            tensor<fp16, [2, 77, 1, 512]> var_14586_cast = softmax(axis = var_10375, x = aw_chunk_1523_cast)[name = tensor<string, []>("op_14586_cast")];
            tensor<fp16, [2, 77, 1, 512]> var_14587_cast = softmax(axis = var_10375, x = aw_chunk_1525_cast)[name = tensor<string, []>("op_14587_cast")];
            tensor<fp16, [2, 77, 1, 512]> var_14588_cast = softmax(axis = var_10375, x = aw_chunk_1527_cast)[name = tensor<string, []>("op_14588_cast")];
            tensor<fp16, [2, 77, 1, 512]> var_14589_cast = softmax(axis = var_10375, x = aw_chunk_1529_cast)[name = tensor<string, []>("op_14589_cast")];
            tensor<fp16, [2, 77, 1, 512]> var_14590_cast = softmax(axis = var_10375, x = aw_chunk_1531_cast)[name = tensor<string, []>("op_14590_cast")];
            tensor<fp16, [2, 77, 1, 512]> var_14591_cast = softmax(axis = var_10375, x = aw_chunk_1533_cast)[name = tensor<string, []>("op_14591_cast")];
            tensor<fp16, [2, 77, 1, 512]> var_14592_cast = softmax(axis = var_10375, x = aw_chunk_1535_cast)[name = tensor<string, []>("op_14592_cast")];
            tensor<fp16, [2, 77, 1, 512]> var_14593_cast = softmax(axis = var_10375, x = aw_chunk_1537_cast)[name = tensor<string, []>("op_14593_cast")];
            tensor<fp16, [2, 77, 1, 512]> var_14594_cast = softmax(axis = var_10375, x = aw_chunk_1539_cast)[name = tensor<string, []>("op_14594_cast")];
            tensor<fp16, [2, 77, 1, 512]> var_14595_cast = softmax(axis = var_10375, x = aw_chunk_1541_cast)[name = tensor<string, []>("op_14595_cast")];
            tensor<fp16, [2, 77, 1, 512]> var_14596_cast = softmax(axis = var_10375, x = aw_chunk_1543_cast)[name = tensor<string, []>("op_14596_cast")];
            tensor<fp16, [2, 77, 1, 512]> var_14597_cast = softmax(axis = var_10375, x = aw_chunk_1545_cast)[name = tensor<string, []>("op_14597_cast")];
            tensor<fp16, [2, 77, 1, 512]> var_14598_cast = softmax(axis = var_10375, x = aw_chunk_1547_cast)[name = tensor<string, []>("op_14598_cast")];
            tensor<fp16, [2, 77, 1, 512]> var_14599_cast = softmax(axis = var_10375, x = aw_chunk_1549_cast)[name = tensor<string, []>("op_14599_cast")];
            tensor<fp16, [2, 77, 1, 512]> var_14600_cast = softmax(axis = var_10375, x = aw_chunk_1551_cast)[name = tensor<string, []>("op_14600_cast")];
            tensor<fp16, [2, 77, 1, 512]> var_14601_cast = softmax(axis = var_10375, x = aw_chunk_1553_cast)[name = tensor<string, []>("op_14601_cast")];
            tensor<fp16, [2, 77, 1, 512]> var_14602_cast = softmax(axis = var_10375, x = aw_chunk_1555_cast)[name = tensor<string, []>("op_14602_cast")];
            tensor<fp16, [2, 77, 1, 512]> var_14603_cast = softmax(axis = var_10375, x = aw_chunk_1557_cast)[name = tensor<string, []>("op_14603_cast")];
            tensor<fp16, [2, 77, 1, 512]> var_14604_cast = softmax(axis = var_10375, x = aw_chunk_1559_cast)[name = tensor<string, []>("op_14604_cast")];
            tensor<fp16, [2, 77, 1, 512]> var_14605_cast = softmax(axis = var_10375, x = aw_chunk_1561_cast)[name = tensor<string, []>("op_14605_cast")];
            tensor<fp16, [2, 77, 1, 512]> var_14606_cast = softmax(axis = var_10375, x = aw_chunk_1563_cast)[name = tensor<string, []>("op_14606_cast")];
            tensor<fp16, [2, 77, 1, 512]> var_14607_cast = softmax(axis = var_10375, x = aw_chunk_1565_cast)[name = tensor<string, []>("op_14607_cast")];
            tensor<fp16, [2, 77, 1, 512]> var_14608_cast = softmax(axis = var_10375, x = aw_chunk_1567_cast)[name = tensor<string, []>("op_14608_cast")];
            tensor<fp16, [2, 77, 1, 512]> var_14609_cast = softmax(axis = var_10375, x = aw_chunk_1569_cast)[name = tensor<string, []>("op_14609_cast")];
            tensor<fp16, [2, 77, 1, 512]> var_14610_cast = softmax(axis = var_10375, x = aw_chunk_1571_cast)[name = tensor<string, []>("op_14610_cast")];
            tensor<fp16, [2, 77, 1, 512]> var_14611_cast = softmax(axis = var_10375, x = aw_chunk_1573_cast)[name = tensor<string, []>("op_14611_cast")];
            tensor<fp16, [2, 77, 1, 512]> var_14612_cast = softmax(axis = var_10375, x = aw_chunk_1575_cast)[name = tensor<string, []>("op_14612_cast")];
            tensor<fp16, [2, 77, 1, 512]> var_14613_cast = softmax(axis = var_10375, x = aw_chunk_1577_cast)[name = tensor<string, []>("op_14613_cast")];
            tensor<fp16, [2, 77, 1, 512]> var_14614_cast = softmax(axis = var_10375, x = aw_chunk_1579_cast)[name = tensor<string, []>("op_14614_cast")];
            tensor<fp16, [2, 77, 1, 512]> var_14615_cast = softmax(axis = var_10375, x = aw_chunk_1581_cast)[name = tensor<string, []>("op_14615_cast")];
            tensor<fp16, [2, 77, 1, 512]> var_14616_cast = softmax(axis = var_10375, x = aw_chunk_1583_cast)[name = tensor<string, []>("op_14616_cast")];
            tensor<fp16, [2, 77, 1, 512]> var_14617_cast = softmax(axis = var_10375, x = aw_chunk_1585_cast)[name = tensor<string, []>("op_14617_cast")];
            tensor<fp16, [2, 77, 1, 512]> var_14618_cast = softmax(axis = var_10375, x = aw_chunk_1587_cast)[name = tensor<string, []>("op_14618_cast")];
            tensor<fp16, [2, 77, 1, 512]> var_14619_cast = softmax(axis = var_10375, x = aw_chunk_1589_cast)[name = tensor<string, []>("op_14619_cast")];
            tensor<fp16, [2, 77, 1, 512]> var_14620_cast = softmax(axis = var_10375, x = aw_chunk_1591_cast)[name = tensor<string, []>("op_14620_cast")];
            tensor<fp16, [2, 77, 1, 512]> var_14621_cast = softmax(axis = var_10375, x = aw_chunk_1593_cast)[name = tensor<string, []>("op_14621_cast")];
            tensor<fp16, [2, 77, 1, 512]> var_14622_cast = softmax(axis = var_10375, x = aw_chunk_1595_cast)[name = tensor<string, []>("op_14622_cast")];
            tensor<fp16, [2, 77, 1, 512]> var_14623_cast = softmax(axis = var_10375, x = aw_chunk_1597_cast)[name = tensor<string, []>("op_14623_cast")];
            tensor<fp16, [2, 77, 1, 512]> var_14624_cast = softmax(axis = var_10375, x = aw_chunk_cast)[name = tensor<string, []>("op_14624_cast")];
            tensor<string, []> var_14626_equation_0 = const()[name = tensor<string, []>("op_14626_equation_0"), val = tensor<string, []>("bchk,bkhq->bchq")];
            tensor<fp16, [2, 40, 1, 512]> var_14626_cast = einsum(equation = var_14626_equation_0, values = (var_14274_cast, var_14561_cast))[name = tensor<string, []>("op_14626_cast")];
            tensor<string, []> var_14628_equation_0 = const()[name = tensor<string, []>("op_14628_equation_0"), val = tensor<string, []>("bchk,bkhq->bchq")];
            tensor<fp16, [2, 40, 1, 512]> var_14628_cast = einsum(equation = var_14628_equation_0, values = (var_14274_cast, var_14562_cast))[name = tensor<string, []>("op_14628_cast")];
            tensor<string, []> var_14630_equation_0 = const()[name = tensor<string, []>("op_14630_equation_0"), val = tensor<string, []>("bchk,bkhq->bchq")];
            tensor<fp16, [2, 40, 1, 512]> var_14630_cast = einsum(equation = var_14630_equation_0, values = (var_14274_cast, var_14563_cast))[name = tensor<string, []>("op_14630_cast")];
            tensor<string, []> var_14632_equation_0 = const()[name = tensor<string, []>("op_14632_equation_0"), val = tensor<string, []>("bchk,bkhq->bchq")];
            tensor<fp16, [2, 40, 1, 512]> var_14632_cast = einsum(equation = var_14632_equation_0, values = (var_14274_cast, var_14564_cast))[name = tensor<string, []>("op_14632_cast")];
            tensor<string, []> var_14634_equation_0 = const()[name = tensor<string, []>("op_14634_equation_0"), val = tensor<string, []>("bchk,bkhq->bchq")];
            tensor<fp16, [2, 40, 1, 512]> var_14634_cast = einsum(equation = var_14634_equation_0, values = (var_14274_cast, var_14565_cast))[name = tensor<string, []>("op_14634_cast")];
            tensor<string, []> var_14636_equation_0 = const()[name = tensor<string, []>("op_14636_equation_0"), val = tensor<string, []>("bchk,bkhq->bchq")];
            tensor<fp16, [2, 40, 1, 512]> var_14636_cast = einsum(equation = var_14636_equation_0, values = (var_14274_cast, var_14566_cast))[name = tensor<string, []>("op_14636_cast")];
            tensor<string, []> var_14638_equation_0 = const()[name = tensor<string, []>("op_14638_equation_0"), val = tensor<string, []>("bchk,bkhq->bchq")];
            tensor<fp16, [2, 40, 1, 512]> var_14638_cast = einsum(equation = var_14638_equation_0, values = (var_14274_cast, var_14567_cast))[name = tensor<string, []>("op_14638_cast")];
            tensor<string, []> var_14640_equation_0 = const()[name = tensor<string, []>("op_14640_equation_0"), val = tensor<string, []>("bchk,bkhq->bchq")];
            tensor<fp16, [2, 40, 1, 512]> var_14640_cast = einsum(equation = var_14640_equation_0, values = (var_14274_cast, var_14568_cast))[name = tensor<string, []>("op_14640_cast")];
            tensor<string, []> var_14642_equation_0 = const()[name = tensor<string, []>("op_14642_equation_0"), val = tensor<string, []>("bchk,bkhq->bchq")];
            tensor<fp16, [2, 40, 1, 512]> var_14642_cast = einsum(equation = var_14642_equation_0, values = (var_14278_cast, var_14569_cast))[name = tensor<string, []>("op_14642_cast")];
            tensor<string, []> var_14644_equation_0 = const()[name = tensor<string, []>("op_14644_equation_0"), val = tensor<string, []>("bchk,bkhq->bchq")];
            tensor<fp16, [2, 40, 1, 512]> var_14644_cast = einsum(equation = var_14644_equation_0, values = (var_14278_cast, var_14570_cast))[name = tensor<string, []>("op_14644_cast")];
            tensor<string, []> var_14646_equation_0 = const()[name = tensor<string, []>("op_14646_equation_0"), val = tensor<string, []>("bchk,bkhq->bchq")];
            tensor<fp16, [2, 40, 1, 512]> var_14646_cast = einsum(equation = var_14646_equation_0, values = (var_14278_cast, var_14571_cast))[name = tensor<string, []>("op_14646_cast")];
            tensor<string, []> var_14648_equation_0 = const()[name = tensor<string, []>("op_14648_equation_0"), val = tensor<string, []>("bchk,bkhq->bchq")];
            tensor<fp16, [2, 40, 1, 512]> var_14648_cast = einsum(equation = var_14648_equation_0, values = (var_14278_cast, var_14572_cast))[name = tensor<string, []>("op_14648_cast")];
            tensor<string, []> var_14650_equation_0 = const()[name = tensor<string, []>("op_14650_equation_0"), val = tensor<string, []>("bchk,bkhq->bchq")];
            tensor<fp16, [2, 40, 1, 512]> var_14650_cast = einsum(equation = var_14650_equation_0, values = (var_14278_cast, var_14573_cast))[name = tensor<string, []>("op_14650_cast")];
            tensor<string, []> var_14652_equation_0 = const()[name = tensor<string, []>("op_14652_equation_0"), val = tensor<string, []>("bchk,bkhq->bchq")];
            tensor<fp16, [2, 40, 1, 512]> var_14652_cast = einsum(equation = var_14652_equation_0, values = (var_14278_cast, var_14574_cast))[name = tensor<string, []>("op_14652_cast")];
            tensor<string, []> var_14654_equation_0 = const()[name = tensor<string, []>("op_14654_equation_0"), val = tensor<string, []>("bchk,bkhq->bchq")];
            tensor<fp16, [2, 40, 1, 512]> var_14654_cast = einsum(equation = var_14654_equation_0, values = (var_14278_cast, var_14575_cast))[name = tensor<string, []>("op_14654_cast")];
            tensor<string, []> var_14656_equation_0 = const()[name = tensor<string, []>("op_14656_equation_0"), val = tensor<string, []>("bchk,bkhq->bchq")];
            tensor<fp16, [2, 40, 1, 512]> var_14656_cast = einsum(equation = var_14656_equation_0, values = (var_14278_cast, var_14576_cast))[name = tensor<string, []>("op_14656_cast")];
            tensor<string, []> var_14658_equation_0 = const()[name = tensor<string, []>("op_14658_equation_0"), val = tensor<string, []>("bchk,bkhq->bchq")];
            tensor<fp16, [2, 40, 1, 512]> var_14658_cast = einsum(equation = var_14658_equation_0, values = (var_14282_cast, var_14577_cast))[name = tensor<string, []>("op_14658_cast")];
            tensor<string, []> var_14660_equation_0 = const()[name = tensor<string, []>("op_14660_equation_0"), val = tensor<string, []>("bchk,bkhq->bchq")];
            tensor<fp16, [2, 40, 1, 512]> var_14660_cast = einsum(equation = var_14660_equation_0, values = (var_14282_cast, var_14578_cast))[name = tensor<string, []>("op_14660_cast")];
            tensor<string, []> var_14662_equation_0 = const()[name = tensor<string, []>("op_14662_equation_0"), val = tensor<string, []>("bchk,bkhq->bchq")];
            tensor<fp16, [2, 40, 1, 512]> var_14662_cast = einsum(equation = var_14662_equation_0, values = (var_14282_cast, var_14579_cast))[name = tensor<string, []>("op_14662_cast")];
            tensor<string, []> var_14664_equation_0 = const()[name = tensor<string, []>("op_14664_equation_0"), val = tensor<string, []>("bchk,bkhq->bchq")];
            tensor<fp16, [2, 40, 1, 512]> var_14664_cast = einsum(equation = var_14664_equation_0, values = (var_14282_cast, var_14580_cast))[name = tensor<string, []>("op_14664_cast")];
            tensor<string, []> var_14666_equation_0 = const()[name = tensor<string, []>("op_14666_equation_0"), val = tensor<string, []>("bchk,bkhq->bchq")];
            tensor<fp16, [2, 40, 1, 512]> var_14666_cast = einsum(equation = var_14666_equation_0, values = (var_14282_cast, var_14581_cast))[name = tensor<string, []>("op_14666_cast")];
            tensor<string, []> var_14668_equation_0 = const()[name = tensor<string, []>("op_14668_equation_0"), val = tensor<string, []>("bchk,bkhq->bchq")];
            tensor<fp16, [2, 40, 1, 512]> var_14668_cast = einsum(equation = var_14668_equation_0, values = (var_14282_cast, var_14582_cast))[name = tensor<string, []>("op_14668_cast")];
            tensor<string, []> var_14670_equation_0 = const()[name = tensor<string, []>("op_14670_equation_0"), val = tensor<string, []>("bchk,bkhq->bchq")];
            tensor<fp16, [2, 40, 1, 512]> var_14670_cast = einsum(equation = var_14670_equation_0, values = (var_14282_cast, var_14583_cast))[name = tensor<string, []>("op_14670_cast")];
            tensor<string, []> var_14672_equation_0 = const()[name = tensor<string, []>("op_14672_equation_0"), val = tensor<string, []>("bchk,bkhq->bchq")];
            tensor<fp16, [2, 40, 1, 512]> var_14672_cast = einsum(equation = var_14672_equation_0, values = (var_14282_cast, var_14584_cast))[name = tensor<string, []>("op_14672_cast")];
            tensor<string, []> var_14674_equation_0 = const()[name = tensor<string, []>("op_14674_equation_0"), val = tensor<string, []>("bchk,bkhq->bchq")];
            tensor<fp16, [2, 40, 1, 512]> var_14674_cast = einsum(equation = var_14674_equation_0, values = (var_14286_cast, var_14585_cast))[name = tensor<string, []>("op_14674_cast")];
            tensor<string, []> var_14676_equation_0 = const()[name = tensor<string, []>("op_14676_equation_0"), val = tensor<string, []>("bchk,bkhq->bchq")];
            tensor<fp16, [2, 40, 1, 512]> var_14676_cast = einsum(equation = var_14676_equation_0, values = (var_14286_cast, var_14586_cast))[name = tensor<string, []>("op_14676_cast")];
            tensor<string, []> var_14678_equation_0 = const()[name = tensor<string, []>("op_14678_equation_0"), val = tensor<string, []>("bchk,bkhq->bchq")];
            tensor<fp16, [2, 40, 1, 512]> var_14678_cast = einsum(equation = var_14678_equation_0, values = (var_14286_cast, var_14587_cast))[name = tensor<string, []>("op_14678_cast")];
            tensor<string, []> var_14680_equation_0 = const()[name = tensor<string, []>("op_14680_equation_0"), val = tensor<string, []>("bchk,bkhq->bchq")];
            tensor<fp16, [2, 40, 1, 512]> var_14680_cast = einsum(equation = var_14680_equation_0, values = (var_14286_cast, var_14588_cast))[name = tensor<string, []>("op_14680_cast")];
            tensor<string, []> var_14682_equation_0 = const()[name = tensor<string, []>("op_14682_equation_0"), val = tensor<string, []>("bchk,bkhq->bchq")];
            tensor<fp16, [2, 40, 1, 512]> var_14682_cast = einsum(equation = var_14682_equation_0, values = (var_14286_cast, var_14589_cast))[name = tensor<string, []>("op_14682_cast")];
            tensor<string, []> var_14684_equation_0 = const()[name = tensor<string, []>("op_14684_equation_0"), val = tensor<string, []>("bchk,bkhq->bchq")];
            tensor<fp16, [2, 40, 1, 512]> var_14684_cast = einsum(equation = var_14684_equation_0, values = (var_14286_cast, var_14590_cast))[name = tensor<string, []>("op_14684_cast")];
            tensor<string, []> var_14686_equation_0 = const()[name = tensor<string, []>("op_14686_equation_0"), val = tensor<string, []>("bchk,bkhq->bchq")];
            tensor<fp16, [2, 40, 1, 512]> var_14686_cast = einsum(equation = var_14686_equation_0, values = (var_14286_cast, var_14591_cast))[name = tensor<string, []>("op_14686_cast")];
            tensor<string, []> var_14688_equation_0 = const()[name = tensor<string, []>("op_14688_equation_0"), val = tensor<string, []>("bchk,bkhq->bchq")];
            tensor<fp16, [2, 40, 1, 512]> var_14688_cast = einsum(equation = var_14688_equation_0, values = (var_14286_cast, var_14592_cast))[name = tensor<string, []>("op_14688_cast")];
            tensor<string, []> var_14690_equation_0 = const()[name = tensor<string, []>("op_14690_equation_0"), val = tensor<string, []>("bchk,bkhq->bchq")];
            tensor<fp16, [2, 40, 1, 512]> var_14690_cast = einsum(equation = var_14690_equation_0, values = (var_14290_cast, var_14593_cast))[name = tensor<string, []>("op_14690_cast")];
            tensor<string, []> var_14692_equation_0 = const()[name = tensor<string, []>("op_14692_equation_0"), val = tensor<string, []>("bchk,bkhq->bchq")];
            tensor<fp16, [2, 40, 1, 512]> var_14692_cast = einsum(equation = var_14692_equation_0, values = (var_14290_cast, var_14594_cast))[name = tensor<string, []>("op_14692_cast")];
            tensor<string, []> var_14694_equation_0 = const()[name = tensor<string, []>("op_14694_equation_0"), val = tensor<string, []>("bchk,bkhq->bchq")];
            tensor<fp16, [2, 40, 1, 512]> var_14694_cast = einsum(equation = var_14694_equation_0, values = (var_14290_cast, var_14595_cast))[name = tensor<string, []>("op_14694_cast")];
            tensor<string, []> var_14696_equation_0 = const()[name = tensor<string, []>("op_14696_equation_0"), val = tensor<string, []>("bchk,bkhq->bchq")];
            tensor<fp16, [2, 40, 1, 512]> var_14696_cast = einsum(equation = var_14696_equation_0, values = (var_14290_cast, var_14596_cast))[name = tensor<string, []>("op_14696_cast")];
            tensor<string, []> var_14698_equation_0 = const()[name = tensor<string, []>("op_14698_equation_0"), val = tensor<string, []>("bchk,bkhq->bchq")];
            tensor<fp16, [2, 40, 1, 512]> var_14698_cast = einsum(equation = var_14698_equation_0, values = (var_14290_cast, var_14597_cast))[name = tensor<string, []>("op_14698_cast")];
            tensor<string, []> var_14700_equation_0 = const()[name = tensor<string, []>("op_14700_equation_0"), val = tensor<string, []>("bchk,bkhq->bchq")];
            tensor<fp16, [2, 40, 1, 512]> var_14700_cast = einsum(equation = var_14700_equation_0, values = (var_14290_cast, var_14598_cast))[name = tensor<string, []>("op_14700_cast")];
            tensor<string, []> var_14702_equation_0 = const()[name = tensor<string, []>("op_14702_equation_0"), val = tensor<string, []>("bchk,bkhq->bchq")];
            tensor<fp16, [2, 40, 1, 512]> var_14702_cast = einsum(equation = var_14702_equation_0, values = (var_14290_cast, var_14599_cast))[name = tensor<string, []>("op_14702_cast")];
            tensor<string, []> var_14704_equation_0 = const()[name = tensor<string, []>("op_14704_equation_0"), val = tensor<string, []>("bchk,bkhq->bchq")];
            tensor<fp16, [2, 40, 1, 512]> var_14704_cast = einsum(equation = var_14704_equation_0, values = (var_14290_cast, var_14600_cast))[name = tensor<string, []>("op_14704_cast")];
            tensor<string, []> var_14706_equation_0 = const()[name = tensor<string, []>("op_14706_equation_0"), val = tensor<string, []>("bchk,bkhq->bchq")];
            tensor<fp16, [2, 40, 1, 512]> var_14706_cast = einsum(equation = var_14706_equation_0, values = (var_14294_cast, var_14601_cast))[name = tensor<string, []>("op_14706_cast")];
            tensor<string, []> var_14708_equation_0 = const()[name = tensor<string, []>("op_14708_equation_0"), val = tensor<string, []>("bchk,bkhq->bchq")];
            tensor<fp16, [2, 40, 1, 512]> var_14708_cast = einsum(equation = var_14708_equation_0, values = (var_14294_cast, var_14602_cast))[name = tensor<string, []>("op_14708_cast")];
            tensor<string, []> var_14710_equation_0 = const()[name = tensor<string, []>("op_14710_equation_0"), val = tensor<string, []>("bchk,bkhq->bchq")];
            tensor<fp16, [2, 40, 1, 512]> var_14710_cast = einsum(equation = var_14710_equation_0, values = (var_14294_cast, var_14603_cast))[name = tensor<string, []>("op_14710_cast")];
            tensor<string, []> var_14712_equation_0 = const()[name = tensor<string, []>("op_14712_equation_0"), val = tensor<string, []>("bchk,bkhq->bchq")];
            tensor<fp16, [2, 40, 1, 512]> var_14712_cast = einsum(equation = var_14712_equation_0, values = (var_14294_cast, var_14604_cast))[name = tensor<string, []>("op_14712_cast")];
            tensor<string, []> var_14714_equation_0 = const()[name = tensor<string, []>("op_14714_equation_0"), val = tensor<string, []>("bchk,bkhq->bchq")];
            tensor<fp16, [2, 40, 1, 512]> var_14714_cast = einsum(equation = var_14714_equation_0, values = (var_14294_cast, var_14605_cast))[name = tensor<string, []>("op_14714_cast")];
            tensor<string, []> var_14716_equation_0 = const()[name = tensor<string, []>("op_14716_equation_0"), val = tensor<string, []>("bchk,bkhq->bchq")];
            tensor<fp16, [2, 40, 1, 512]> var_14716_cast = einsum(equation = var_14716_equation_0, values = (var_14294_cast, var_14606_cast))[name = tensor<string, []>("op_14716_cast")];
            tensor<string, []> var_14718_equation_0 = const()[name = tensor<string, []>("op_14718_equation_0"), val = tensor<string, []>("bchk,bkhq->bchq")];
            tensor<fp16, [2, 40, 1, 512]> var_14718_cast = einsum(equation = var_14718_equation_0, values = (var_14294_cast, var_14607_cast))[name = tensor<string, []>("op_14718_cast")];
            tensor<string, []> var_14720_equation_0 = const()[name = tensor<string, []>("op_14720_equation_0"), val = tensor<string, []>("bchk,bkhq->bchq")];
            tensor<fp16, [2, 40, 1, 512]> var_14720_cast = einsum(equation = var_14720_equation_0, values = (var_14294_cast, var_14608_cast))[name = tensor<string, []>("op_14720_cast")];
            tensor<string, []> var_14722_equation_0 = const()[name = tensor<string, []>("op_14722_equation_0"), val = tensor<string, []>("bchk,bkhq->bchq")];
            tensor<fp16, [2, 40, 1, 512]> var_14722_cast = einsum(equation = var_14722_equation_0, values = (var_14298_cast, var_14609_cast))[name = tensor<string, []>("op_14722_cast")];
            tensor<string, []> var_14724_equation_0 = const()[name = tensor<string, []>("op_14724_equation_0"), val = tensor<string, []>("bchk,bkhq->bchq")];
            tensor<fp16, [2, 40, 1, 512]> var_14724_cast = einsum(equation = var_14724_equation_0, values = (var_14298_cast, var_14610_cast))[name = tensor<string, []>("op_14724_cast")];
            tensor<string, []> var_14726_equation_0 = const()[name = tensor<string, []>("op_14726_equation_0"), val = tensor<string, []>("bchk,bkhq->bchq")];
            tensor<fp16, [2, 40, 1, 512]> var_14726_cast = einsum(equation = var_14726_equation_0, values = (var_14298_cast, var_14611_cast))[name = tensor<string, []>("op_14726_cast")];
            tensor<string, []> var_14728_equation_0 = const()[name = tensor<string, []>("op_14728_equation_0"), val = tensor<string, []>("bchk,bkhq->bchq")];
            tensor<fp16, [2, 40, 1, 512]> var_14728_cast = einsum(equation = var_14728_equation_0, values = (var_14298_cast, var_14612_cast))[name = tensor<string, []>("op_14728_cast")];
            tensor<string, []> var_14730_equation_0 = const()[name = tensor<string, []>("op_14730_equation_0"), val = tensor<string, []>("bchk,bkhq->bchq")];
            tensor<fp16, [2, 40, 1, 512]> var_14730_cast = einsum(equation = var_14730_equation_0, values = (var_14298_cast, var_14613_cast))[name = tensor<string, []>("op_14730_cast")];
            tensor<string, []> var_14732_equation_0 = const()[name = tensor<string, []>("op_14732_equation_0"), val = tensor<string, []>("bchk,bkhq->bchq")];
            tensor<fp16, [2, 40, 1, 512]> var_14732_cast = einsum(equation = var_14732_equation_0, values = (var_14298_cast, var_14614_cast))[name = tensor<string, []>("op_14732_cast")];
            tensor<string, []> var_14734_equation_0 = const()[name = tensor<string, []>("op_14734_equation_0"), val = tensor<string, []>("bchk,bkhq->bchq")];
            tensor<fp16, [2, 40, 1, 512]> var_14734_cast = einsum(equation = var_14734_equation_0, values = (var_14298_cast, var_14615_cast))[name = tensor<string, []>("op_14734_cast")];
            tensor<string, []> var_14736_equation_0 = const()[name = tensor<string, []>("op_14736_equation_0"), val = tensor<string, []>("bchk,bkhq->bchq")];
            tensor<fp16, [2, 40, 1, 512]> var_14736_cast = einsum(equation = var_14736_equation_0, values = (var_14298_cast, var_14616_cast))[name = tensor<string, []>("op_14736_cast")];
            tensor<string, []> var_14738_equation_0 = const()[name = tensor<string, []>("op_14738_equation_0"), val = tensor<string, []>("bchk,bkhq->bchq")];
            tensor<fp16, [2, 40, 1, 512]> var_14738_cast = einsum(equation = var_14738_equation_0, values = (var_14302_cast, var_14617_cast))[name = tensor<string, []>("op_14738_cast")];
            tensor<string, []> var_14740_equation_0 = const()[name = tensor<string, []>("op_14740_equation_0"), val = tensor<string, []>("bchk,bkhq->bchq")];
            tensor<fp16, [2, 40, 1, 512]> var_14740_cast = einsum(equation = var_14740_equation_0, values = (var_14302_cast, var_14618_cast))[name = tensor<string, []>("op_14740_cast")];
            tensor<string, []> var_14742_equation_0 = const()[name = tensor<string, []>("op_14742_equation_0"), val = tensor<string, []>("bchk,bkhq->bchq")];
            tensor<fp16, [2, 40, 1, 512]> var_14742_cast = einsum(equation = var_14742_equation_0, values = (var_14302_cast, var_14619_cast))[name = tensor<string, []>("op_14742_cast")];
            tensor<string, []> var_14744_equation_0 = const()[name = tensor<string, []>("op_14744_equation_0"), val = tensor<string, []>("bchk,bkhq->bchq")];
            tensor<fp16, [2, 40, 1, 512]> var_14744_cast = einsum(equation = var_14744_equation_0, values = (var_14302_cast, var_14620_cast))[name = tensor<string, []>("op_14744_cast")];
            tensor<string, []> var_14746_equation_0 = const()[name = tensor<string, []>("op_14746_equation_0"), val = tensor<string, []>("bchk,bkhq->bchq")];
            tensor<fp16, [2, 40, 1, 512]> var_14746_cast = einsum(equation = var_14746_equation_0, values = (var_14302_cast, var_14621_cast))[name = tensor<string, []>("op_14746_cast")];
            tensor<string, []> var_14748_equation_0 = const()[name = tensor<string, []>("op_14748_equation_0"), val = tensor<string, []>("bchk,bkhq->bchq")];
            tensor<fp16, [2, 40, 1, 512]> var_14748_cast = einsum(equation = var_14748_equation_0, values = (var_14302_cast, var_14622_cast))[name = tensor<string, []>("op_14748_cast")];
            tensor<string, []> var_14750_equation_0 = const()[name = tensor<string, []>("op_14750_equation_0"), val = tensor<string, []>("bchk,bkhq->bchq")];
            tensor<fp16, [2, 40, 1, 512]> var_14750_cast = einsum(equation = var_14750_equation_0, values = (var_14302_cast, var_14623_cast))[name = tensor<string, []>("op_14750_cast")];
            tensor<string, []> var_14752_equation_0 = const()[name = tensor<string, []>("op_14752_equation_0"), val = tensor<string, []>("bchk,bkhq->bchq")];
            tensor<fp16, [2, 40, 1, 512]> var_14752_cast = einsum(equation = var_14752_equation_0, values = (var_14302_cast, var_14624_cast))[name = tensor<string, []>("op_14752_cast")];
            tensor<bool, []> var_14754_interleave_0 = const()[name = tensor<string, []>("op_14754_interleave_0"), val = tensor<bool, []>(false)];
            tensor<fp16, [2, 40, 1, 4096]> var_14754_cast = concat(axis = var_10347, interleave = var_14754_interleave_0, values = (var_14626_cast, var_14628_cast, var_14630_cast, var_14632_cast, var_14634_cast, var_14636_cast, var_14638_cast, var_14640_cast))[name = tensor<string, []>("op_14754_cast")];
            tensor<bool, []> var_14756_interleave_0 = const()[name = tensor<string, []>("op_14756_interleave_0"), val = tensor<bool, []>(false)];
            tensor<fp16, [2, 40, 1, 4096]> var_14756_cast = concat(axis = var_10347, interleave = var_14756_interleave_0, values = (var_14642_cast, var_14644_cast, var_14646_cast, var_14648_cast, var_14650_cast, var_14652_cast, var_14654_cast, var_14656_cast))[name = tensor<string, []>("op_14756_cast")];
            tensor<bool, []> var_14758_interleave_0 = const()[name = tensor<string, []>("op_14758_interleave_0"), val = tensor<bool, []>(false)];
            tensor<fp16, [2, 40, 1, 4096]> var_14758_cast = concat(axis = var_10347, interleave = var_14758_interleave_0, values = (var_14658_cast, var_14660_cast, var_14662_cast, var_14664_cast, var_14666_cast, var_14668_cast, var_14670_cast, var_14672_cast))[name = tensor<string, []>("op_14758_cast")];
            tensor<bool, []> var_14760_interleave_0 = const()[name = tensor<string, []>("op_14760_interleave_0"), val = tensor<bool, []>(false)];
            tensor<fp16, [2, 40, 1, 4096]> var_14760_cast = concat(axis = var_10347, interleave = var_14760_interleave_0, values = (var_14674_cast, var_14676_cast, var_14678_cast, var_14680_cast, var_14682_cast, var_14684_cast, var_14686_cast, var_14688_cast))[name = tensor<string, []>("op_14760_cast")];
            tensor<bool, []> var_14762_interleave_0 = const()[name = tensor<string, []>("op_14762_interleave_0"), val = tensor<bool, []>(false)];
            tensor<fp16, [2, 40, 1, 4096]> var_14762_cast = concat(axis = var_10347, interleave = var_14762_interleave_0, values = (var_14690_cast, var_14692_cast, var_14694_cast, var_14696_cast, var_14698_cast, var_14700_cast, var_14702_cast, var_14704_cast))[name = tensor<string, []>("op_14762_cast")];
            tensor<bool, []> var_14764_interleave_0 = const()[name = tensor<string, []>("op_14764_interleave_0"), val = tensor<bool, []>(false)];
            tensor<fp16, [2, 40, 1, 4096]> var_14764_cast = concat(axis = var_10347, interleave = var_14764_interleave_0, values = (var_14706_cast, var_14708_cast, var_14710_cast, var_14712_cast, var_14714_cast, var_14716_cast, var_14718_cast, var_14720_cast))[name = tensor<string, []>("op_14764_cast")];
            tensor<bool, []> var_14766_interleave_0 = const()[name = tensor<string, []>("op_14766_interleave_0"), val = tensor<bool, []>(false)];
            tensor<fp16, [2, 40, 1, 4096]> var_14766_cast = concat(axis = var_10347, interleave = var_14766_interleave_0, values = (var_14722_cast, var_14724_cast, var_14726_cast, var_14728_cast, var_14730_cast, var_14732_cast, var_14734_cast, var_14736_cast))[name = tensor<string, []>("op_14766_cast")];
            tensor<bool, []> var_14768_interleave_0 = const()[name = tensor<string, []>("op_14768_interleave_0"), val = tensor<bool, []>(false)];
            tensor<fp16, [2, 40, 1, 4096]> var_14768_cast = concat(axis = var_10347, interleave = var_14768_interleave_0, values = (var_14738_cast, var_14740_cast, var_14742_cast, var_14744_cast, var_14746_cast, var_14748_cast, var_14750_cast, var_14752_cast))[name = tensor<string, []>("op_14768_cast")];
            tensor<bool, []> input_519_interleave_0 = const()[name = tensor<string, []>("input_519_interleave_0"), val = tensor<bool, []>(false)];
            tensor<fp16, [2, 320, 1, 4096]> input_519_cast = concat(axis = var_10375, interleave = input_519_interleave_0, values = (var_14754_cast, var_14756_cast, var_14758_cast, var_14760_cast, var_14762_cast, var_14764_cast, var_14766_cast, var_14768_cast))[name = tensor<string, []>("input_519_cast")];
            tensor<int32, [2]> var_14774 = const()[name = tensor<string, []>("op_14774"), val = tensor<int32, [2]>([1, 1])];
            tensor<int32, [2]> var_14776 = const()[name = tensor<string, []>("op_14776"), val = tensor<int32, [2]>([1, 1])];
            tensor<string, []> var_14778_pad_type_0 = const()[name = tensor<string, []>("op_14778_pad_type_0"), val = tensor<string, []>("custom")];
            tensor<int32, [4]> var_14778_pad_0 = const()[name = tensor<string, []>("op_14778_pad_0"), val = tensor<int32, [4]>([0, 0, 0, 0])];
            tensor<fp16, [320, 320, 1, 1]> up_blocks_3_attentions_2_transformer_blocks_0_attn2_to_out_0_weight_to_fp16_palettized = constexpr_lut_to_dense()[indices = tensor<uint8, [76800]>(BLOBFILE(path = tensor<string, []>("@model_path/weights/weight.bin"), offset = tensor<uint64, []>(644075392))), lut = tensor<fp16, [64]>(BLOBFILE(path = tensor<string, []>("@model_path/weights/weight.bin"), offset = tensor<uint64, []>(644152256))), name = tensor<string, []>("up_blocks_3_attentions_2_transformer_blocks_0_attn2_to_out_0_weight_to_fp16_palettized"), shape = tensor<uint32, [4]>([320, 320, 1, 1])];
            tensor<fp16, [320]> up_blocks_3_attentions_2_transformer_blocks_0_attn2_to_out_0_bias_to_fp16 = const()[name = tensor<string, []>("up_blocks_3_attentions_2_transformer_blocks_0_attn2_to_out_0_bias_to_fp16"), val = tensor<fp16, [320]>(BLOBFILE(path = tensor<string, []>("@model_path/weights/weight.bin"), offset = tensor<uint64, []>(644152448)))];
            tensor<fp16, [2, 320, 1, 4096]> var_14778_cast = conv(bias = up_blocks_3_attentions_2_transformer_blocks_0_attn2_to_out_0_bias_to_fp16, dilations = var_14776, groups = var_10375, pad = var_14778_pad_0, pad_type = var_14778_pad_type_0, strides = var_14774, weight = up_blocks_3_attentions_2_transformer_blocks_0_attn2_to_out_0_weight_to_fp16_palettized, x = input_519_cast)[name = tensor<string, []>("op_14778_cast")];
            tensor<fp16, [2, 320, 1, 4096]> inputs_cast = add(x = var_14778_cast, y = inputs_93_cast)[name = tensor<string, []>("inputs_cast")];
            tensor<int32, [1]> var_14782 = const()[name = tensor<string, []>("op_14782"), val = tensor<int32, [1]>([1])];
            tensor<fp16, [2, 1, 1, 4096]> channels_mean_cast = reduce_mean(axes = var_14782, keep_dims = var_10370, x = inputs_cast)[name = tensor<string, []>("channels_mean_cast")];
            tensor<fp16, [2, 320, 1, 4096]> zero_mean_cast = sub(x = inputs_cast, y = channels_mean_cast)[name = tensor<string, []>("zero_mean_cast")];
            tensor<fp16, [2, 320, 1, 4096]> zero_mean_sq_cast = mul(x = zero_mean_cast, y = zero_mean_cast)[name = tensor<string, []>("zero_mean_sq_cast")];
            tensor<int32, [1]> var_14786 = const()[name = tensor<string, []>("op_14786"), val = tensor<int32, [1]>([1])];
            tensor<fp16, [2, 1, 1, 4096]> var_14787_cast = reduce_mean(axes = var_14786, keep_dims = var_10370, x = zero_mean_sq_cast)[name = tensor<string, []>("op_14787_cast")];
            tensor<fp16, []> var_14788_to_fp16 = const()[name = tensor<string, []>("op_14788_to_fp16"), val = tensor<fp16, []>(0x1.5p-17)];
            tensor<fp16, [2, 1, 1, 4096]> var_14789_cast = add(x = var_14787_cast, y = var_14788_to_fp16)[name = tensor<string, []>("op_14789_cast")];
            tensor<fp16, []> denom_epsilon_0_to_fp16 = const()[name = tensor<string, []>("denom_epsilon_0_to_fp16"), val = tensor<fp16, []>(0x1p-24)];
            tensor<fp16, [2, 1, 1, 4096]> denom_cast = rsqrt(epsilon = denom_epsilon_0_to_fp16, x = var_14789_cast)[name = tensor<string, []>("denom_cast")];
            tensor<fp16, [2, 320, 1, 4096]> out_cast = mul(x = zero_mean_cast, y = denom_cast)[name = tensor<string, []>("out_cast")];
            tensor<fp16, [1, 320, 1, 1]> var_14793_to_fp16 = const()[name = tensor<string, []>("op_14793_to_fp16"), val = tensor<fp16, [1, 320, 1, 1]>(BLOBFILE(path = tensor<string, []>("@model_path/weights/weight.bin"), offset = tensor<uint64, []>(644153152)))];
            tensor<fp16, [2, 320, 1, 4096]> var_14794_cast = add(x = out_cast, y = var_14793_to_fp16)[name = tensor<string, []>("op_14794_cast")];
            tensor<fp16, [1, 320, 1, 1]> var_14796_to_fp16 = const()[name = tensor<string, []>("op_14796_to_fp16"), val = tensor<fp16, [1, 320, 1, 1]>(BLOBFILE(path = tensor<string, []>("@model_path/weights/weight.bin"), offset = tensor<uint64, []>(644153856)))];
            tensor<fp16, [2, 320, 1, 4096]> input_521_cast = mul(x = var_14794_cast, y = var_14796_to_fp16)[name = tensor<string, []>("input_521_cast")];
            tensor<int32, [2]> var_14804 = const()[name = tensor<string, []>("op_14804"), val = tensor<int32, [2]>([1, 1])];
            tensor<int32, [2]> var_14806 = const()[name = tensor<string, []>("op_14806"), val = tensor<int32, [2]>([1, 1])];
            tensor<string, []> var_14808_pad_type_0 = const()[name = tensor<string, []>("op_14808_pad_type_0"), val = tensor<string, []>("custom")];
            tensor<int32, [4]> var_14808_pad_0 = const()[name = tensor<string, []>("op_14808_pad_0"), val = tensor<int32, [4]>([0, 0, 0, 0])];
            tensor<fp16, [2560, 320, 1, 1]> up_blocks_3_attentions_2_transformer_blocks_0_ff_net_0_proj_weight_to_fp16_palettized = constexpr_lut_to_dense()[indices = tensor<uint8, [614400]>(BLOBFILE(path = tensor<string, []>("@model_path/weights/weight.bin"), offset = tensor<uint64, []>(644154560))), lut = tensor<fp16, [64]>(BLOBFILE(path = tensor<string, []>("@model_path/weights/weight.bin"), offset = tensor<uint64, []>(644769024))), name = tensor<string, []>("up_blocks_3_attentions_2_transformer_blocks_0_ff_net_0_proj_weight_to_fp16_palettized"), shape = tensor<uint32, [4]>([2560, 320, 1, 1])];
            tensor<fp16, [2560]> up_blocks_3_attentions_2_transformer_blocks_0_ff_net_0_proj_bias_to_fp16_palettized = constexpr_lut_to_dense()[indices = tensor<uint8, [1920]>(BLOBFILE(path = tensor<string, []>("@model_path/weights/weight.bin"), offset = tensor<uint64, []>(644769216))), lut = tensor<fp16, [64]>(BLOBFILE(path = tensor<string, []>("@model_path/weights/weight.bin"), offset = tensor<uint64, []>(644771200))), name = tensor<string, []>("up_blocks_3_attentions_2_transformer_blocks_0_ff_net_0_proj_bias_to_fp16_palettized"), shape = tensor<uint32, [1]>([2560])];
            tensor<fp16, [2, 2560, 1, 4096]> var_14808_cast = conv(bias = up_blocks_3_attentions_2_transformer_blocks_0_ff_net_0_proj_bias_to_fp16_palettized, dilations = var_14806, groups = var_10375, pad = var_14808_pad_0, pad_type = var_14808_pad_type_0, strides = var_14804, weight = up_blocks_3_attentions_2_transformer_blocks_0_ff_net_0_proj_weight_to_fp16_palettized, x = input_521_cast)[name = tensor<string, []>("op_14808_cast")];
            tensor<int32, [2]> var_14809_split_sizes_0 = const()[name = tensor<string, []>("op_14809_split_sizes_0"), val = tensor<int32, [2]>([1280, 1280])];
            tensor<int32, []> var_14809_axis_0 = const()[name = tensor<string, []>("op_14809_axis_0"), val = tensor<int32, []>(1)];
            tensor<fp16, [2, 1280, 1, 4096]> var_14809_cast_0, tensor<fp16, [2, 1280, 1, 4096]> var_14809_cast_1 = split(axis = var_14809_axis_0, split_sizes = var_14809_split_sizes_0, x = var_14808_cast)[name = tensor<string, []>("op_14809_cast")];
            tensor<string, []> var_14811_mode_0 = const()[name = tensor<string, []>("op_14811_mode_0"), val = tensor<string, []>("EXACT")];
            tensor<fp16, [2, 1280, 1, 4096]> var_14811_cast = gelu(mode = var_14811_mode_0, x = var_14809_cast_1)[name = tensor<string, []>("op_14811_cast")];
            tensor<fp16, [2, 1280, 1, 4096]> input_523_cast = mul(x = var_14809_cast_0, y = var_14811_cast)[name = tensor<string, []>("input_523_cast")];
            tensor<int32, [2]> var_14815 = const()[name = tensor<string, []>("op_14815"), val = tensor<int32, [2]>([1, 1])];
            tensor<int32, [2]> var_14817 = const()[name = tensor<string, []>("op_14817"), val = tensor<int32, [2]>([1, 1])];
            tensor<string, []> var_14819_pad_type_0 = const()[name = tensor<string, []>("op_14819_pad_type_0"), val = tensor<string, []>("custom")];
            tensor<int32, [4]> var_14819_pad_0 = const()[name = tensor<string, []>("op_14819_pad_0"), val = tensor<int32, [4]>([0, 0, 0, 0])];
            tensor<fp16, [320, 1280, 1, 1]> up_blocks_3_attentions_2_transformer_blocks_0_ff_net_2_weight_to_fp16_palettized = constexpr_lut_to_dense()[indices = tensor<uint8, [307200]>(BLOBFILE(path = tensor<string, []>("@model_path/weights/weight.bin"), offset = tensor<uint64, []>(644771392))), lut = tensor<fp16, [64]>(BLOBFILE(path = tensor<string, []>("@model_path/weights/weight.bin"), offset = tensor<uint64, []>(645078656))), name = tensor<string, []>("up_blocks_3_attentions_2_transformer_blocks_0_ff_net_2_weight_to_fp16_palettized"), shape = tensor<uint32, [4]>([320, 1280, 1, 1])];
            tensor<fp16, [320]> up_blocks_3_attentions_2_transformer_blocks_0_ff_net_2_bias_to_fp16 = const()[name = tensor<string, []>("up_blocks_3_attentions_2_transformer_blocks_0_ff_net_2_bias_to_fp16"), val = tensor<fp16, [320]>(BLOBFILE(path = tensor<string, []>("@model_path/weights/weight.bin"), offset = tensor<uint64, []>(645078848)))];
            tensor<fp16, [2, 320, 1, 4096]> var_14819_cast = conv(bias = up_blocks_3_attentions_2_transformer_blocks_0_ff_net_2_bias_to_fp16, dilations = var_14817, groups = var_10375, pad = var_14819_pad_0, pad_type = var_14819_pad_type_0, strides = var_14815, weight = up_blocks_3_attentions_2_transformer_blocks_0_ff_net_2_weight_to_fp16_palettized, x = input_523_cast)[name = tensor<string, []>("op_14819_cast")];
            tensor<fp16, [2, 320, 1, 4096]> hidden_states_333_cast = add(x = var_14819_cast, y = inputs_cast)[name = tensor<string, []>("hidden_states_333_cast")];
            tensor<int32, [4]> var_14821 = const()[name = tensor<string, []>("op_14821"), val = tensor<int32, [4]>([2, 320, 64, 64])];
            tensor<fp16, [2, 320, 64, 64]> input_525_cast = reshape(shape = var_14821, x = hidden_states_333_cast)[name = tensor<string, []>("input_525_cast")];
            tensor<int32, [2]> var_14825 = const()[name = tensor<string, []>("op_14825"), val = tensor<int32, [2]>([1, 1])];
            tensor<int32, [2]> var_14827 = const()[name = tensor<string, []>("op_14827"), val = tensor<int32, [2]>([1, 1])];
            tensor<string, []> hidden_states_pad_type_0 = const()[name = tensor<string, []>("hidden_states_pad_type_0"), val = tensor<string, []>("custom")];
            tensor<int32, [4]> hidden_states_pad_0 = const()[name = tensor<string, []>("hidden_states_pad_0"), val = tensor<int32, [4]>([0, 0, 0, 0])];
            tensor<fp16, [320, 320, 1, 1]> up_blocks_3_attentions_2_proj_out_weight_to_fp16_palettized = constexpr_lut_to_dense()[indices = tensor<uint8, [76800]>(BLOBFILE(path = tensor<string, []>("@model_path/weights/weight.bin"), offset = tensor<uint64, []>(645079552))), lut = tensor<fp16, [64]>(BLOBFILE(path = tensor<string, []>("@model_path/weights/weight.bin"), offset = tensor<uint64, []>(645156416))), name = tensor<string, []>("up_blocks_3_attentions_2_proj_out_weight_to_fp16_palettized"), shape = tensor<uint32, [4]>([320, 320, 1, 1])];
            tensor<fp16, [320]> up_blocks_3_attentions_2_proj_out_bias_to_fp16 = const()[name = tensor<string, []>("up_blocks_3_attentions_2_proj_out_bias_to_fp16"), val = tensor<fp16, [320]>(BLOBFILE(path = tensor<string, []>("@model_path/weights/weight.bin"), offset = tensor<uint64, []>(645156608)))];
            tensor<fp16, [2, 320, 64, 64]> hidden_states_cast = conv(bias = up_blocks_3_attentions_2_proj_out_bias_to_fp16, dilations = var_14827, groups = var_10375, pad = hidden_states_pad_0, pad_type = hidden_states_pad_type_0, strides = var_14825, weight = up_blocks_3_attentions_2_proj_out_weight_to_fp16_palettized, x = input_525_cast)[name = tensor<string, []>("hidden_states_cast")];
            tensor<fp16, [2, 320, 64, 64]> input_527_cast = add(x = hidden_states_cast, y = hidden_states_323_cast)[name = tensor<string, []>("input_527_cast")];
            tensor<int32, [5]> reshape_240_shape_0 = const()[name = tensor<string, []>("reshape_240_shape_0"), val = tensor<int32, [5]>([2, 32, 10, 64, 64])];
            tensor<fp16, [2, 32, 10, 64, 64]> reshape_240_cast = reshape(shape = reshape_240_shape_0, x = input_527_cast)[name = tensor<string, []>("reshape_240_cast")];
            tensor<int32, [3]> reduce_mean_180_axes_0 = const()[name = tensor<string, []>("reduce_mean_180_axes_0"), val = tensor<int32, [3]>([2, 3, 4])];
            tensor<bool, []> reduce_mean_180_keep_dims_0 = const()[name = tensor<string, []>("reduce_mean_180_keep_dims_0"), val = tensor<bool, []>(true)];
            tensor<fp16, [2, 32, 1, 1, 1]> reduce_mean_180_cast = reduce_mean(axes = reduce_mean_180_axes_0, keep_dims = reduce_mean_180_keep_dims_0, x = reshape_240_cast)[name = tensor<string, []>("reduce_mean_180_cast")];
            tensor<fp16, [2, 32, 10, 64, 64]> sub_120_cast = sub(x = reshape_240_cast, y = reduce_mean_180_cast)[name = tensor<string, []>("sub_120_cast")];
            tensor<fp16, [2, 32, 10, 64, 64]> square_60_cast = square(x = sub_120_cast)[name = tensor<string, []>("square_60_cast")];
            tensor<int32, [3]> reduce_mean_182_axes_0 = const()[name = tensor<string, []>("reduce_mean_182_axes_0"), val = tensor<int32, [3]>([2, 3, 4])];
            tensor<bool, []> reduce_mean_182_keep_dims_0 = const()[name = tensor<string, []>("reduce_mean_182_keep_dims_0"), val = tensor<bool, []>(true)];
            tensor<fp16, [2, 32, 1, 1, 1]> reduce_mean_182_cast = reduce_mean(axes = reduce_mean_182_axes_0, keep_dims = reduce_mean_182_keep_dims_0, x = square_60_cast)[name = tensor<string, []>("reduce_mean_182_cast")];
            tensor<fp16, []> add_120_y_0_to_fp16 = const()[name = tensor<string, []>("add_120_y_0_to_fp16"), val = tensor<fp16, []>(0x1.5p-17)];
            tensor<fp16, [2, 32, 1, 1, 1]> add_120_cast = add(x = reduce_mean_182_cast, y = add_120_y_0_to_fp16)[name = tensor<string, []>("add_120_cast")];
            tensor<fp16, [2, 32, 1, 1, 1]> sqrt_60_cast = sqrt(x = add_120_cast)[name = tensor<string, []>("sqrt_60_cast")];
            tensor<fp16, [2, 32, 10, 64, 64]> real_div_60_cast = real_div(x = sub_120_cast, y = sqrt_60_cast)[name = tensor<string, []>("real_div_60_cast")];
            tensor<int32, [4]> reshape_241_shape_0 = const()[name = tensor<string, []>("reshape_241_shape_0"), val = tensor<int32, [4]>([2, 320, 64, 64])];
            tensor<fp16, [2, 320, 64, 64]> reshape_241_cast = reshape(shape = reshape_241_shape_0, x = real_div_60_cast)[name = tensor<string, []>("reshape_241_cast")];
            tensor<fp16, [320]> add_121_gamma_0_to_fp16 = const()[name = tensor<string, []>("add_121_gamma_0_to_fp16"), val = tensor<fp16, [320]>(BLOBFILE(path = tensor<string, []>("@model_path/weights/weight.bin"), offset = tensor<uint64, []>(645157312)))];
            tensor<fp16, [320]> add_121_beta_0_to_fp16 = const()[name = tensor<string, []>("add_121_beta_0_to_fp16"), val = tensor<fp16, [320]>(BLOBFILE(path = tensor<string, []>("@model_path/weights/weight.bin"), offset = tensor<uint64, []>(645158016)))];
            tensor<fp16, []> add_121_epsilon_0_to_fp16 = const()[name = tensor<string, []>("add_121_epsilon_0_to_fp16"), val = tensor<fp16, []>(0x1.5p-17)];
            tensor<fp16, [2, 320, 64, 64]> add_121_cast = batch_norm(beta = add_121_beta_0_to_fp16, epsilon = add_121_epsilon_0_to_fp16, gamma = add_121_gamma_0_to_fp16, mean = add_1_mean_0_to_fp16, variance = add_1_variance_0_to_fp16, x = reshape_241_cast)[name = tensor<string, []>("add_121_cast")];
            tensor<fp16, [2, 320, 64, 64]> input_cast = silu(x = add_121_cast)[name = tensor<string, []>("input_cast")];
            tensor<int32, []> var_14841 = const()[name = tensor<string, []>("op_14841"), val = tensor<int32, []>(1)];
            tensor<int32, [2]> var_14844 = const()[name = tensor<string, []>("op_14844"), val = tensor<int32, [2]>([1, 1])];
            tensor<int32, [2]> var_14846 = const()[name = tensor<string, []>("op_14846"), val = tensor<int32, [2]>([1, 1])];
            tensor<string, []> var_14848_pad_type_0 = const()[name = tensor<string, []>("op_14848_pad_type_0"), val = tensor<string, []>("custom")];
            tensor<int32, [4]> var_14848_pad_0 = const()[name = tensor<string, []>("op_14848_pad_0"), val = tensor<int32, [4]>([1, 1, 1, 1])];
            tensor<fp16, [4, 320, 3, 3]> conv_out_weight_to_fp16_palettized = constexpr_lut_to_dense()[indices = tensor<uint8, [8640]>(BLOBFILE(path = tensor<string, []>("@model_path/weights/weight.bin"), offset = tensor<uint64, []>(645158720))), lut = tensor<fp16, [64]>(BLOBFILE(path = tensor<string, []>("@model_path/weights/weight.bin"), offset = tensor<uint64, []>(645167424))), name = tensor<string, []>("conv_out_weight_to_fp16_palettized"), shape = tensor<uint32, [4]>([4, 320, 3, 3])];
            tensor<fp16, [4]> conv_out_bias_to_fp16 = const()[name = tensor<string, []>("conv_out_bias_to_fp16"), val = tensor<fp16, [4]>([-0x1.c54p-10, -0x1.88p-10, -0x1.834p-13, -0x1.bfp-9])];
            tensor<fp16, [2, 4, 64, 64]> var_14848_cast = conv(bias = conv_out_bias_to_fp16, dilations = var_14846, groups = var_14841, pad = var_14848_pad_0, pad_type = var_14848_pad_type_0, strides = var_14844, weight = conv_out_weight_to_fp16_palettized, x = input_cast)[name = tensor<string, []>("op_14848_cast")];
            tensor<string, []> var_14848_cast_to_fp32_dtype_0 = const()[name = tensor<string, []>("op_14848_cast_to_fp32_dtype_0"), val = tensor<string, []>("fp32")];
            tensor<fp32, [2, 4, 64, 64]> noise_pred = cast(dtype = var_14848_cast_to_fp32_dtype_0, x = var_14848_cast)[name = tensor<string, []>("cast_0")];
        } -> (noise_pred);
}